FINAL_04/global_model.pth (torch, 21457 bytes, 6 tensors)

network.0.weight f4 [64, 37]
000000 1c 47 ce 3d dc 35 36 3e b5 50 a7 bd 5a 67 03 3e
       0.10072157 0.17793983 -0.081696905 0.12832394
000010 6b 60 ad bd da 63 74 bc b0 f2 d8 bd 8c 28 88 3d
       -0.08465656 -0.014916385 -0.10593164 0.06648359
000020 4c 13 f3 3d d7 c6 69 be 62 f3 02 3e 12 9b 8d bd
       0.11868915 -0.22829758 0.12788156 -0.06914343
000030 db 16 b0 3d 48 a1 fc bb 21 ae 2e 3d 0d 6a 85 bd
       0.08598109 -0.007709656 0.04264653 -0.06514368
000040 10 9d c3 3d a3 62 b6 bc 75 9a 01 be 52 0d 1f bb
       0.09551442 -0.02226383 -0.12656577 -0.0024269414
000050 ca c1 00 be b9 d2 8b 3c c7 58 c2 bd ad e9 a7 3d
       -0.12573925 0.017068254 -0.09489589 0.08198867
000060 e6 2a 1d be 18 7b d6 bd 5e 40 93 bd e9 06 0a be
       -0.15348396 -0.10472697 -0.071900114 -0.13479199
000070 7a 5c 6e bc c8 48 81 be 47 47 0e 3e 59 92 34 be
       -0.014548415 -0.2525084 0.13894378 -0.17633952
000080 cb 22 15 3d a2 d6 24 bc 38 2a ac bd 73 49 81 3d
       0.036410134 -0.010060938 -0.0840649 0.063128375
000090 28 49 a7 bc 0a 7a ff 3d 6c 4d 30 bd fa 95 7a bd
       -0.020420626 0.12474449 -0.043042585 -0.061178185
0000a0 36 cf 17 3d 58 5e 7c bd 8a 77 22 3d e2 35 22 3e
       0.037062846 -0.06161341 0.039664783 0.15840867
0000b0 02 46 cc 3d c3 35 ab bd 62 8c 9a 3d 98 39 63 bd
       0.099742904 -0.083598636 0.07546307 -0.055474848
0000c0 87 f5 b5 3c 2e f9 ed bd 3f 9a 32 be fa 9c bb bd
       0.022211803 -0.11619793 -0.17441653 -0.091608
0000d0 d7 b3 11 be fa f2 01 3e 0f 68 04 3d 34 bb 5a 3d
       -0.1422876 0.12690344 0.0323258 0.053401187
0000e0 af af 14 3d a3 00 96 bc 16 0a 8e 3d 87 ed d4 bd
       0.036300357 -0.01831085 0.069355175 -0.10396867
0000f0 c9 66 13 3b 92 d4 f9 bd 60 78 6f 3d 19 3b 01 be
       0.0022491685 -0.12198748 0.058464408 -0.126202
000100 b7 a0 04 3d 9e 8e 4f bd 70 d4 ae 3d cf d4 00 be
       0.032379832 -0.05067312 0.08536613 -0.1258118
000110 3d 90 21 be 50 a7 08 be 91 40 0e 3e ea af 4b 3d
       -0.15777679 -0.13345075 0.13891818 0.04972831
000120 cd b3 21 3e 2d 95 13 be 36 6e 19 be 00 5d 30 be
       0.15791245 -0.14412375 -0.14983448 -0.17222977
000130 db 23 b7 bd 12 a2 9c 3d ee e8 ae 3d ba ae 16 3e
       -0.08942386 0.076481 0.085405216 0.1471509
000140 e5 0a 8c bd f0 12 9c bd f3 65 c9 3d 4c 12 d1 3c
       -0.068380155 -0.076207995 0.098338984 0.02552142
000150 9f 89 35 3e 11 61 03 3d 98 eb 0d 3e 1e 24 ba bd
       0.1772828 0.03207499 0.13859403 -0.0908892
000160 22 e3 63 bd 89 a0 be 3d fe 3b 70 3d d8 ae 1c bc
       -0.055636533 0.093079634 0.058650963 -0.00956317
000170 ad 12 0d 3e 3d c6 14 3e 43 36 ab bd 87 4d 12 be
       0.13776655 0.14528747 -0.08359959 -0.14287387
000180 f6 54 35 3e c5 ae 17 bd 52 62 1a bd 58 20 0a be
       0.17708191 -0.037031908 -0.03769142 -0.134889
000190 a7 0a 40 bb 47 88 8a 3d 55 42 c9 3b dc be 7a bd
       -0.0029303224 0.06764274 0.0061419406 -0.061217174
0001a0 e1 0b 21 3c 7f 6c 9f bd f6 75 e6 bc 4d 84 3d bd
       0.009829492 -0.07784366 -0.02813242 -0.04626875
0001b0 bc a1 02 be 3c 15 a4 bd 9a cd 68 3e 58 5e fe 3c
       -0.1275701 -0.08011863 0.22734681 0.031050846
0001c0 10 82 4f 3d 28 03 1d be ec 20 dd bd 4c 23 60 bd
       0.050661147 -0.15333235 -0.10797295 -0.05472116
0001d0 08 98 d2 3c 36 69 16 be 51 67 99 bd 42 62 cd bd
       0.02570726 -0.14688572 -0.07490409 -0.10028507
0001e0 9d 7d a4 ba f2 90 7a bd 56 e5 4e bc 8a 26 e4 bd
       -0.0012549643 -0.061173387 -0.01262792 -0.11140163
0001f0 0e 1a e7 bd d0 6c c4 bd e2 7e 66 bd 03 df 04 be
       -0.112842664 -0.09591067 -0.05627335 -0.12975697
000200 df 26 0d 3e 30 a4 05 bd d7 d7 10 3e 08 d0 51 3d
       0.1378436 -0.032627285 0.14144836 0.051223785
000210 bd 8d 0e be 60 13 e2 3d 9c e7 41 bd 9a 66 86 bd
       -0.13921256 0.11038852 -0.04734002 -0.065625384
000220 1c fc 0e be 8e 5c 27 be db c6 33 3d d3 21 21 bd
       -0.1396336 -0.163439 0.043890815 -0.039338898
000230 90 3e 7c 3d 7b 27 0a be 20 a0 f1 3d fa fe fb bd
       0.0615831 -0.13491623 0.117981195 -0.12304492
000240 88 8c e8 bc f8 a5 0c 3d fe d0 ad 3d 03 e8 07 3e
       -0.028387323 0.034337968 0.08487128 0.13272099
000250 67 7d 57 3e cd cc 8c 3c 64 a3 85 bc 74 15 a4 bc
       0.21043931 0.0171875 -0.016313262 -0.02002976
000260 72 67 c9 bd c6 4b 4f be 48 19 24 3e 70 b0 cb bd
       -0.09834184 -0.20243749 0.16025269 -0.09945762
000270 62 c2 d4 3d 14 e5 c6 bd 15 70 22 be ec 1c b2 be
       0.10388638 -0.09711662 -0.15863068 -0.3478769
000280 30 a9 0b 3e db 39 0f bb fc 7c 3c 3d c1 9d 21 be
       0.13638759 -0.0021854553 0.046017632 -0.15782835
000290 ea 04 7b 3d 4e cd 2d bd 81 6e bc bd 8c 27 02 3e
       0.061283983 -0.042432122 -0.092007644 0.12710398
0002a0 03 e6 87 3c 8a a0 95 3d 43 4f 95 bd 8c 61 14 bc
       0.01658917 0.07306011 -0.072905086 -0.00905646
0002b0 3a ba ac 3d 5d e2 a8 bc 59 21 ab be ee 43 44 bd
       0.084339574 -0.02061575 -0.3342388 -0.047916345
0002c0 0c 10 e6 bd 91 bb 60 bd 3e d0 43 3e fc 07 94 be
       -0.112335294 -0.054866377 0.19122407 -0.28912342
0002d0 dc 85 c7 bd f6 67 d6 3d c8 bb b4 3d ca fc fc bc
       -0.097423285 0.10469048 0.08824879 -0.030882258
0002e0 0e d6 9d 3c 7c 82 61 3d dc bb 4c 3b 98 9b 7e bc
       0.019267108 0.05505608 0.0031239903 -0.015540026
0002f0 a3 38 98 bd f6 b0 cb 3c 4e 14 fe bc 67 c0 92 bd
       -0.074326776 0.024864655 -0.031015541 -0.07165604
000300 6c 42 b0 3d a0 8e e6 3d 08 a6 a4 3d 67 61 a4 3d
       0.08606419 0.11257672 0.080394804 0.080263905
000310 54 d5 20 3e 1c 21 7d bc 56 38 fe 3c 30 a4 06 3d
       0.15706378 -0.015449788 0.031032722 0.032871425
000320 3f e8 1d be 83 e5 83 bd 60 92 0b 3e ae 3a 79 3d
       -0.15420626 -0.0644026 0.13630056 0.060846977
000330 50 f6 6c bc f0 9a c8 bd ab 1e 20 be 96 3b 2d be
       -0.014463022 -0.09795177 -0.15636699 -0.16917261
000340 cc 0e 6d bd df 74 39 3d 9f 25 a3 3d ec 6b 47 3e
       -0.05787544 0.045277473 0.0796616 0.19474763
000350 86 bd 29 be 5f ba 05 be f9 cc bc 3d 0c 16 4e 3e
       -0.16576204 -0.13059376 0.09218783 0.20125598
000360 ef ad ac 3d f6 32 cf 3d b7 e1 14 3d 5a f2 aa bd
       0.08431613 0.10117142 0.03634807 -0.08347006
000370 ad 9c 00 be 7e ec 19 3e d8 17 99 bd 6c fd 06 bd
       -0.12559767 0.15031621 -0.07475251 -0.032956526
000380 4a 78 27 be 0e 56 e1 3d 5a 16 ff 3d 58 69 75 3d
       -0.1635448 0.11002742 0.12455435 0.059914917
000390 c0 c3 ea bd 5e 25 26 be d5 b9 08 be b6 11 fb 3d
       -0.114631176 -0.16225192 -0.1335214 0.122592375
0003a0 7a a5 a1 3d a7 a9 0d 3e 9a 61 b0 3d 40 6d 2a 3d
       0.0789289 0.13834248 0.08612366 0.041608095
0003b0 80 03 d3 ba ed 06 00 be a2 3b 10 be fa 75 1d be
       -0.0016099066 -0.12502642 -0.14085248 -0.15377036
0003c0 e6 d3 89 3d b7 4d a5 bd e4 84 07 bd 30 c4 c1 bd
       0.067298695 -0.080714636 -0.03308572 -0.09461248
0003d0 28 69 f5 bc 3a f9 ec bd 7a ff db bd e8 5d 5f 3d
       -0.029957369 -0.11570974 -0.10742088 0.054532915
0003e0 26 20 48 bd 4e da cf 3d 90 06 58 bd ee fb f6 bd
       -0.048858784 0.1014906 -0.052740633 -0.120597705
0003f0 c8 9e ed bc 8d 35 a3 bd b0 03 4e bd 66 43 20 be
       -0.029006377 -0.079691984 -0.050296485 -0.1565071

network.0.bias f4 [64]
000000 5e 8a e8 bd dc de 04 3e d6 b1 21 3e 4c 1b 09 bc
       -0.113545164 0.12975639 0.15790495 -0.0083683245
000010 ef 25 e9 bd de 25 a9 bd 6a 14 34 bd 40 f7 31 3b
       -0.113841884 -0.08259176 -0.04396478 0.002715543
000020 c1 1e 02 be ca fe bf 3c 95 94 08 be b0 bf 40 bd
       -0.12707044 0.023436923 -0.1333793 -0.047057807
000030 b7 e5 ad bd 5c 5d 4e bd 5d 05 10 be 1c 90 9f bd
       -0.0849108 -0.050382003 -0.14064546 -0.077911586
000040 8b bb 82 3d d2 9f dc 3d 08 a2 0d 3e 28 a8 c0 bd
       0.06383427 0.10772671 0.13831341 -0.09407073
000050 04 62 8d 3d 92 80 9b bd 52 7b d6 bd 24 b0 a9 bc
       0.069034606 -0.07592882 -0.1047274 -0.020713873
000060 76 4c 14 be bc d1 0a be 18 5b 1b be ee 70 dd bd
       -0.14482293 -0.1355657 -0.15171468 -0.10812555
000070 4a f1 bd 3d 86 9f dc 3d dc d9 61 bc 3d 81 17 be
       0.09274538 0.10772614 -0.013784852 -0.14795394
000080 1c b1 0c be d9 65 b5 bd 36 6c f9 bd b7 e5 18 3e
       -0.13739437 -0.088573165 -0.12178843 0.1493138
000090 5a 27 37 3d 50 59 82 bc ab 90 c4 3d e0 a6 f5 bd
       0.044715263 -0.015911728 0.09597906 -0.119947195
0000a0 d9 ed 22 be 41 f3 90 3d 18 85 ea bd 0b 71 8d 3d
       -0.15911044 0.07077647 -0.11451167 0.06906327
0000b0 90 d8 03 3e 90 ba ae bd 1a 32 a5 bd 96 a3 cb 3d
       0.12875581 -0.08531678 -0.08066197 0.09943311
0000c0 3a 36 dd bd 25 88 f0 3d 12 6f 5d bd e8 c4 94 3d
       -0.108013585 0.117447175 -0.054061003 0.072641194
0000d0 a1 2c 19 be d5 4c 97 bd b4 f6 c5 bc f9 e7 01 3d
       -0.14958431 -0.073877014 -0.024165489 0.031715367
0000e0 c6 dc cf 3d eb ce 2f 3e 98 1c a9 bc ca c4 c3 bc
       0.10149531 0.17168777 -0.020643517 -0.023897547
0000f0 ee 72 37 bc f2 f7 86 ba 8a fc ee bc 3a 9d 36 be
       -0.011196835 -0.0010297282 -0.029173154 -0.17833415

network.2.weight f4 [32, 64]
000000 50 5f bd bd c6 53 7f 3d d0 6e ed bd a3 9c c5 3d
       -0.09246695 0.062335752 -0.115934014 0.09649017
000010 80 ed a2 3c a0 aa b3 3c 34 ac e8 3d 7c 62 8e bd
       0.01988864 0.021931946 0.1136097 -0.06952378
000020 f3 0b 88 bd d5 1e 3c 3d 81 6c 29 3c 2c be 00 be
       -0.06642904 0.04592784 0.010340811 -0.12572545
000030 6c f9 35 3d ff 91 a6 bd 51 db 9e 3c 14 b2 22 3e
       0.04442732 -0.08133315 0.019391688 0.15888244
000040 be 38 65 bc 43 94 81 bb 1d d8 71 bc ce 42 d7 3d
       -0.013990579 -0.0039544418 -0.014760998 0.10510789
000050 0a 7e 91 3d 9c 91 dc bc d9 b4 f5 bd b2 61 59 bd
       0.07104118 -0.0269249 -0.119973846 -0.053071685
000060 93 72 92 3d d4 57 67 3d b6 53 79 3d dc 6f cb bd
       0.071507595 0.056480244 0.06087085 -0.09933445
000070 57 f5 99 3d a0 43 89 ba 62 f8 b2 3d ee d5 99 3d
       0.07517498 -0.0010472424 0.087387815 0.07511507
000080 a3 d0 b2 3d bf d2 88 bd 18 74 04 3e ff e9 8c bd
       0.087312005 -0.066808216 0.12934911 -0.06880569
000090 81 3c 99 3d 4c 21 1e be cd c8 30 bd c2 7e cb bd
       0.07482243 -0.15442389 -0.04316025 -0.099362865
0000a0 cb dc 92 bd 95 47 82 3d f4 1e c7 bd c8 6e da bd
       -0.07171019 0.063613094 -0.09722701 -0.10665661
0000b0 8e fd a2 3d 76 a8 88 3d 8c 1e fd 3b 9a 29 14 be
       0.07958518 0.066727564 0.0077245887 -0.14468995
0000c0 98 e7 18 bd f7 d5 3f bd 23 5f 9f 3d 28 92 30 bd
       -0.03733024 -0.046834912 0.07781818 -0.043108135
0000d0 19 cc cd bd 14 ff bb bd ad 73 a0 bd 61 b2 00 3d
       -0.10048694 -0.09179512 -0.078345634 0.031420115
0000e0 ea e7 84 3d 47 fc bb 3c 61 b9 a4 bd a2 80 f1 3d
       0.064895466 0.022947444 -0.08043171 0.11792113
0000f0 fb 56 bd 3c 74 c7 23 bd 61 44 8f bc 9a d8 d3 bc
       0.023112765 -0.039985135 -0.01748866 -0.02586012
000100 40 60 79 3c 90 0e 27 3d 84 19 83 3d 8a 08 31 bb
       0.015220702 0.040785372 0.06401351 -0.0027013146
000110 26 80 4a 3d 9e 5f aa bd a0 cd 6b bd 8c 14 3d bd
       0.049438618 -0.08319019 -0.057569146 -0.046162173
000120 7b 62 12 be fe ab db bd 54 37 db bd da 3b 6c 3d
       -0.1429538 -0.10726164 -0.107039124 0.057674266
000130 80 75 9a 3a 7b bc 00 3d db 24 0e be e4 89 b3 3d
       0.0011784285 0.03142975 -0.13881247 0.08766535
000140 9a fc bd 3c ba fe 73 3d 5e 2b 59 3d fa 34 c9 bd
       0.023191739 0.059569098 0.053019874 -0.098245576
000150 10 06 80 bc 1d 27 84 3d 44 dd 1d 3e e0 66 3e bd
       -0.01562789 0.06452773 0.15416437 -0.046484828
000160 25 a4 b4 3d e2 fd f6 bd 06 1c d9 bd 0c a0 d7 3d
       0.088203706 -0.12060143 -0.10601048 0.105285734
000170 70 6e 1d bd 34 02 8c 3d a1 52 a1 3d d9 03 89 bd
       -0.0384354 0.06836358 0.07877088 -0.06690187
000180 7a ea da 3d 47 c4 12 3e 90 7c c1 bc d4 0e 64 bc
       0.10689254 0.14332686 -0.023618966 -0.013919551
000190 2a d2 81 3a e4 f8 4b 3c ea 96 58 3d 71 bd 1c 3c
       0.0009904553 0.012449477 0.052878298 0.009566651
0001a0 de c3 8b bb 4d bf 07 3e 46 81 1a bb 26 a8 06 be
       -0.0042652925 0.13256569 -0.0023575588 -0.13150081
0001b0 58 aa d4 3d 90 21 aa 3d c6 ae e8 bd 6f be 08 3e
       0.10384053 0.08307183 -0.113614604 0.13353895
0001c0 22 02 c8 3d 05 b4 84 bd 22 77 0e be f5 89 34 bc
       0.09766032 -0.064796485 -0.13912633 -0.01101922
0001d0 68 a0 0b be a4 84 e6 3d 80 b0 27 3d 2e 97 1f bd
       -0.13635409 0.11255768 0.040939808 -0.038962536
0001e0 47 6a bb 3d 96 91 a1 bd 92 84 7f bc 26 b5 a4 bd
       0.0915113 -0.078890964 -0.015595572 -0.08042364
0001f0 f6 88 4d 3d ae d9 e2 3b c0 a5 e4 3c c0 1b 41 bd
       0.050179444 0.006922922 0.027911067 -0.047145605
000200 f4 d4 9b bd 05 68 a4 3d 1f 64 8d 3d 56 36 87 3c
       -0.07608977 0.08027653 0.06903862 0.016505402
000210 6c 4a 87 bd dc 9d a0 3c 00 3e af 39 e2 e1 e9 3d
       -0.06605992 0.019606523 0.00033424795 0.11420037
000220 7c 76 ba bb 4c 30 2e bb a0 88 18 bc 28 4d f0 3c
       -0.005690394 -0.002657908 -0.009309918 0.029333666
000230 00 70 ca ba bb af 8f 3d de bd 54 3d 9a d7 b3 bd
       -0.0015444756 0.0701594 0.051938884 -0.08781357
000240 ba 13 16 bd 68 4b d9 bd 34 24 d0 bd 64 1b 58 3c
       -0.036639906 -0.10610086 -0.10163155 0.013190124
000250 a8 1c e6 3c 1e 21 13 bd e5 0a 93 3d 08 ad 99 bd
       0.028089836 -0.035920255 0.07179812 -0.07503706
000260 d7 c3 94 bd 24 8a e6 bc 80 76 76 bc 2e af 5f bc
       -0.07263916 -0.028142042 -0.015042901 -0.013652606
000270 b6 df d3 3d d5 22 81 bd 70 73 d4 bd 88 4e 4c bc
       0.10345404 -0.06305472 -0.103735805 -0.012469895
000280 67 ad ba 3d 5f 45 96 bb 2a 66 65 3d 40 9d 3f bc
       0.09115105 -0.0045859064 0.056005634 -0.011695206
000290 e8 a7 c7 3d 96 76 c5 3c a2 72 9b 3d f0 e8 06 bd
       0.097488225 0.024104398 0.07590224 -0.03293699
0002a0 06 1c e1 bd 08 28 bf bd 59 40 05 3d 1c 48 a9 3d
       -0.10991673 -0.09333807 0.03253207 0.08265707
0002b0 ce 31 70 bd ae 4d c4 3d 2c a9 1e 3b 6f 75 12 bd
       -0.058641247 0.09585129 0.002420972 -0.035756525
0002c0 66 bf fd bc ee 30 cf bc a0 f4 cc 3d 9d b2 a0 bb
       -0.030975055 -0.025291886 0.10007596 -0.004904105
0002d0 10 fa 52 3d cb 17 fb bd 4d d8 8c bd 56 11 bb bb
       0.05150801 -0.122603975 -0.068771936 -0.0057088537
0002e0 56 45 ba 3d 89 78 3c 3d d3 a7 33 3c 43 b7 04 be
       0.09095256 0.04601339 0.010965305 -0.12960534
0002f0 ed f0 0d bd 2e 1d c5 bd 0e 67 e0 bd 70 f3 27 3c
       -0.034653593 -0.09624706 -0.10957156 0.010250911
000300 4d 2d 0b bd 14 36 cc 3d 8e 25 8b bd 54 00 25 3d
       -0.03397875 0.09971252 -0.06794272 0.040283516
000310 0d 4f 84 3d 54 66 cd bd 04 04 83 3d 10 1c 89 bc
       0.0646039 -0.10029283 0.0639725 -0.016737014
000320 90 0c 6a 3d ce f5 13 3e 16 52 a0 bd cc bf 5d bd
       0.057140887 0.14449236 -0.07828157 -0.05413799
000330 94 67 cb 3d 10 bd 63 3c 0d 51 c2 bc 5f a4 26 3e
       0.09931865 0.0139000565 -0.023720289 0.1627364
000340 a8 5e 77 bd a0 3e ca bb ae d2 a5 3d 14 7b 6e 3d
       -0.060393006 -0.0061720163 0.080968246 0.058222845
000350 a8 95 a5 bd 6c 73 f0 3c 33 ed 1e be 75 f5 93 bd
       -0.08085185 0.029351912 -0.15520172 -0.072245516
000360 8c e3 d5 3c 64 5a 61 bd 3a 65 82 bd c0 2a 11 3c
       0.02610948 -0.055017844 -0.06366964 0.00886029
000370 58 f7 aa 3c 25 59 b4 bd 14 a3 ac bd 24 dc 78 be
       0.020869896 -0.088060655 -0.08429542 -0.24302727
000380 10 77 c9 3d dc a5 ac bd 9c 94 a8 39 a8 06 e5 bc
       0.098371625 -0.08430073 0.0003215418 -0.027957276
000390 5e 63 a7 bd 08 dd d7 bd 6f ff 07 be b6 14 55 bd
       -0.0817325 -0.10540205 -0.13281034 -0.052021705
0003a0 7f c6 15 bc 17 55 bd bd 29 79 0a be f5 d1 af 3d
       -0.009141563 -0.09244745 -0.13522781 0.08584968
0003b0 80 b6 40 3c 18 6f 62 bd b3 13 3a bc b9 c1 a7 3d
       0.011762261 -0.05528173 -0.011357236 0.081912465
0003c0 6e 92 d5 bd ad 98 9e bd 9f f7 e3 bd 40 e4 14 bc
       -0.1042832 -0.07743964 -0.11131214 -0.009087622
0003d0 24 d8 57 bd 96 80 c7 bd 61 65 ae 3d d5 8d 1a be
       -0.052696362 -0.09741323 0.0851543 -0.15093167
0003e0 26 57 de 3d f3 fc cc bd 7e 0e 0d bd 80 79 bf 3c
       0.10856466 -0.10009184 -0.03443765 0.023373365
0003f0 8c 92 63 bd 90 23 d9 3d 87 b4 96 bd d2 35 90 bc
       -0.05555968 0.10602486 -0.073586516 -0.017603789

network.2.bias f4 [32]
000000 12 23 aa bc 56 c1 1f be 46 4c a7 3d c7 3c 8e 3d
       -0.020768676 -0.15601096 0.08168845 0.06945186
000010 28 70 32 bd 42 d6 04 bc e0 70 e5 3d c6 c6 19 be
       -0.04356399 -0.008107724 0.1120317 -0.15017232
000020 40 94 e6 bd ee 03 5d 3d ee 73 ab bc 92 f3 54 3d
       -0.11258745 0.053958826 -0.020929303 0.0519901
000030 4e cd 0b bd 6c 7e f1 3c 40 1f 81 3d de 80 95 bc
       -0.03413134 0.029479228 0.063047886 -0.018249925
000040 d4 84 85 bd cb d7 06 be 43 f3 0a bd fd c0 93 3d
       -0.065194756 -0.13168256 -0.0339234 0.07214544
000050 d6 71 06 be 72 1e 04 bd 10 74 d8 3d 09 72 8a bd
       -0.13129362 -0.032255597 0.10569012 -0.06760032
000060 81 3c 9d bd f0 e0 4e bd c2 81 4f bd af c3 0e 3b
       -0.07677556 -0.050507486 -0.050660856 0.0021784117
000070 7d bd 08 be e6 e7 ab 3c db 64 29 bb c8 5f 82 bc
       -0.13353534 0.020984601 -0.0025847468 -0.015914813

network.4.weight f4 [2, 32]
000000 28 78 2c bb 9f 9a b8 3d 60 84 ad bd 08 ff 2c be
       -0.0026316736 0.09013867 -0.08472514 -0.16894162
000010 34 92 1b be c7 23 01 be 22 9c a9 bd a0 c2 c0 3d
       -0.15192491 -0.12611304 -0.08281733 0.09412122
000020 5a 21 0b be 34 47 ce bd 22 e4 21 be 66 2a ba bd
       -0.13586941 -0.10072175 -0.15809682 -0.09090118
000030 c1 5b 1c 3d 0f 66 f7 bd 16 0b d8 3b 7b 21 da 3d
       0.03817344 -0.12080013 0.0065931184 0.10650917
000040 02 81 44 bd 0c 33 ad 3d ba 68 96 3d e7 82 34 3e
       -0.047974594 0.08457002 0.07344194 0.1762806
000050 a9 32 52 3a 16 67 0c 3e 26 01 34 3e af 2d 1b 3d
       0.0008018413 0.13711199 0.17578563 0.037885364
000060 ea ec a3 3d ca 11 e9 bd f6 75 f2 bd cf 84 d8 3d
       0.08004172 -0.11380346 -0.118389055 0.10572206
000070 aa 26 8e 3d fa 2b fc 3d 74 d3 44 bd 3c 1b 05 bd
       0.06940968 0.12313075 -0.04805322 -0.032496676
000080 4e 1c da 3d 43 3c 3f 3c ce 2b 10 3e 3d 93 bd bd
       0.1064993 0.011672082 0.1407921 -0.09256599
000090 e1 e0 11 bd d0 65 88 bb 70 83 b7 3d 54 26 e3 bd
       -0.03561485 -0.0041625276 0.089606166 -0.11091295
0000a0 28 2a 56 bd d6 fd e8 3d ba 59 28 3d 65 53 00 3e
       -0.052286297 0.1137654 0.041101195 0.12531812
0000b0 e9 91 e2 bd d4 81 d3 bd b6 6a 04 be a9 36 18 be
       -0.110629864 -0.10327497 -0.12931332 -0.14864601
0000c0 73 d4 f1 bd 0c dd 9c 3d 46 75 51 3c 1c 8b f5 bd
       -0.118080996 0.07659349 0.012784308 -0.11989424
0000d0 ea 61 13 3e 92 f5 84 3d 0a 46 71 3c 5c 30 f0 bc
       0.1439282 0.06492151 0.014726171 -0.029319935
0000e0 1d 2e 07 3e 29 b5 06 be 8e ef 03 3e 31 c4 04 be
       0.13201185 -0.13155045 0.12884352 -0.12965466
0000f0 ea c4 8e 3d 7e 6e eb bc e2 d2 0d 3e d2 d0 17 be
       0.06971152 -0.02873921 0.13849977 -0.14825752

network.4.bias f4 [2]
000000 c1 57 84 bd 74 c2 92 bc
       -0.0646205 -0.017914988
