FINAL_04/global_model_dp_sigma_1.0.pth (torch, 21741 bytes, 6 tensors)

network.0.weight f4 [64, 37]
1.5492316 -1.4208006 0.4652037 2.736194 0.22586781 1.8631707 0.91694045 -1.4431025
-2.051973 -1.3600262 -2.0383244 -0.53462017 -0.8726834 2.0280626 -0.8527298 -0.10328559
1.3402854 0.74058014 0.7639806 0.8816206 1.9996691 -0.05322191 -0.11637237 -3.620053
3.3200965 1.8017755 1.3331676 -1.5764467 -0.56118166 1.5241026 0.4322505 2.7213104
0.5463276 -3.199395 -0.70875293 0.59873223 1.07432 -2.1904886 3.7858977 -2.0176246
-0.2338998 0.9939085 -3.628844 0.62242395 -1.6291524 0.8966944 3.0630548 -3.280098
0.39991453 -0.35346985 0.81089145 -0.34067282 2.2037997 -1.1005236 2.5533712 4.349242
1.7928898 -2.233978 -1.0564382 -0.92149526 3.0685668 -0.51733303 1.99705 -0.8569221
-0.88422227 -2.2709832 1.2020696 0.86651015 -0.816955 -3.2185082 0.063263 4.312925
-2.8348775 1.2455714 -2.245476 2.5872173 4.71581 1.637334 0.43991956 -0.92026037
-1.4651034 0.76284266 2.6745064 0.9810992 0.6657727 -0.40662318 -0.8067476 -2.0346637
1.2130462 -1.9163742 2.904328 -0.35353494 0.983069 1.2789311 -0.5520773 0.40824962
-0.6868823 0.555209 -0.7148553 -4.3533235 0.085989654 2.27102 0.9205449 0.014382351
-0.68066067 -0.6149568 -0.4155025 0.42916283 -2.9300067 -0.4297282 -0.57872283 0.33330545
3.2066336 2.362566 0.86767423 0.177865 -0.90083134 -1.2445202 -0.08714086 -0.7767674
0.5714898 -2.0855691 2.7942944 0.5313217 -0.47560847 2.5446746 -0.4970137 0.64307714
-0.24622902 0.12477332 2.5351577 0.1011449 0.67431426 -2.4667017 0.12938632 1.9440364
-3.5507808 -0.16894929 -0.06420763 -2.02775 1.319685 -1.4786236 -0.1307724 -0.5170393
-3.053508 -3.4124832 0.24842909 -1.6245208 0.9557358 -1.2896194 -1.4986151 -0.3762814
-1.3735342 0.64237654 -0.23717597 -0.9708136 3.2154431 -0.41329584 -0.15382764 -0.87320995
-0.63628906 -0.39805266 2.6433733 -0.45428994 0.7326906 -1.2203108 0.9479194 -0.043470055
2.1295416 1.9997494 -0.08409579 1.8692026 1.2012842 0.21580893 -0.113236114 -0.41698992
-3.092961 0.6455733 -3.113426 -3.313941 0.4041679 -1.8565296 -0.46235722 -2.703028
-0.3364073 -0.7248026 0.5850379 1.5273762 -2.3159215 -1.7906582 0.22306591 -1.6649065
-1.4962332 0.443003 0.85371494 4.2256756 0.544668 -2.276037 -4.3609576 -1.9024068
0.95479643 -0.98358065 -0.0486459 1.378046 1.2648927 0.5226283 -2.279536 -1.4955177
-1.1686293 -1.1253822 -0.57772446 -0.44125956 1.5589027 -3.2099233 0.013340712 -0.4563197
-0.39599723 -0.008731723 2.0516984 -2.8561988 -1.7961519 -2.1810763 -0.60443485 -1.9938189
-2.17832 2.740842 -0.030828595 -1.5353847 -1.0928832 2.528918 0.012455374 1.1035764
1.2567872 0.96656805 -2.455705 -1.0207181 2.0606842 2.2103999 4.2584796 1.3187006
-0.66862357 0.5078205 2.8215182 0.61966056 1.0379362 1.7055454 3.7093632 0.043316364
-0.68889296 -0.06188023 -0.11817699 1.0887607 0.7764193 -3.4886322 -2.3909764 -1.6148282
00000000: 394d c63f cbdc b5bf 2e2f ee3e cd1d 2f40
00000010: e449 673e 617c ee3f 9cbc 6a3f 95b7 b8bf
00000020: 8753 03c0 5715 aebf e873 02c0 dedc 08bf
00000030: 2e68 5fbf c7cb 0140 804c 5abf 6587 d3bd
00000040: 798e ab3f a996 3d3f 3c94 433f e3b1 613f
00000050: 28f5 ff3f 38ff 59bd a354 eebd f3ae 67c0
00000060: 767c 5440 94a0 e63f 3ca5 aa3f 01c9 c9bf
00000070: 9aa9 0fbf cb15 c33f f04f dd3e f329 2e40
00000080: 20dc 0b3f e3c2 4cc0 d570 35bf 8446 193f
00000090: 5183 893f f730 0cc0 264c 7240 c320 01c0
000000a0: 6e83 6fbe ca70 7e3f fb3e 68c0 2d57 1f3f
000000b0: 1188 d0bf c48d 653f 1709 4440 20ed 51c0
000000c0: 99c1 cc3e 00fa b4be 9596 4f3f ab6c aebe
000000d0: 0e0b 0d40 f5dd 8cbf 6f6a 2340 fe2c 8b40
000000e0: 6a7d e53f 7ff9 0ec0 5e39 87bf 1de7 6bbf
000000f0: 6663 4440 f06f 04bf 569f ff3f 3f5f 5bbf
00000100: 645c 62bf ca57 11c0 6bdd 993f 9cd3 5d3f
00000110: f623 51bf 0afc 4dc0 0890 813d 7b03 8a40
00000120: a26e 35c0 e26e 9f3f e1b5 0fc0 f894 2540
00000130: eae7 9640 2994 d13f 233d e13e 2f96 6bbf
00000140: 8288 bbbf a849 433f 1d2b 2b40 5129 7b3f
00000150: 1470 2a3f ea30 d0be 0387 4ebf ee37 02c0
00000160: 1945 9b3f c04b f5bf 83e0 3940 8802 b5be
00000170: 69aa 7b3f 04b4 a33f f054 0dbf 1806 d13e
00000180: 85d7 2fbf 2d22 0e3f c200 37bf 6d4e 8bc0
00000190: 581b b03d 6458 1140 d5a8 6b3f f4a3 6b3c
000001a0: c73f 2ebf cf6d 1dbf bebc d4be 3bbb db3e
000001b0: 3b85 3bc0 5605 dcbe 2e27 14bf 03a7 aa3e
000001c0: 7c39 4d40 4834 1740 e61f 5e3f 3e22 363e
000001d0: e29c 66bf 704c 9fbf e876 b2bd 3ada 46bf
000001e0: 284d 123f f779 05c0 b8d5 3240 b304 083f
000001f0: f482 f3be f3db 2240 9478 febe b4a0 243f
00000200: 7623 7cbe 2889 ff3d 0640 2240 0f25 cf3d
00000210: dc9f 2c3f 71de 1dc0 d97d 043e 2fd6 f83f
00000220: fe3f 63c0 0b01 2dbe 4a7f 83bd a8c6 01c0
00000230: 70eb a83f 8a43 bdbf 33e9 05be b05c 04bf
00000240: ad6c 43c0 2066 5ac0 3264 7e3e 4cf0 cfbf
00000250: 1aab 743f 4012 a5bf 9fd2 bfbf f5a7 c0be
00000260: f8cf afbf ca72 243f 42de 72be 3d87 78bf
00000270: d2c9 4d40 839b d3be fe84 1dbe b08a 5fbf
00000280: d7e3 22bf 8fcd cbbe 072d 2940 b198 e8be
00000290: 9c91 3b3f 2533 9cbf d9aa 723f a80d 32bd
000002a0: 694a 0840 caf7 ff3f 6a3a acbd 0842 ef3f
000002b0: aec3 993f 04fd 5c3e 56e8 e7bd b47f d5be
000002c0: 13f3 45c0 4b44 253f 5f42 47c0 9c17 54c0
000002d0: 18ef ce3e c3a2 edbf 16ba ecbe 69fe 2cc0
000002e0: 943d acbe aa8c 39bf 0bc5 153f 1081 c33f
000002f0: 0f38 14c0 4a34 e5bf 646b 643e a81b d5bf
00000300: 9284 bfbf 4ad1 e23e 108d 5a3f bc38 8740
00000310: 5d6f 0b3f 97aa 11c0 f78c 8bc0 1182 f3bf
00000320: 8a6d 743f f1cb 7bbf ec40 47bd d063 b03f
00000330: 01e8 a13f f8ca 053f ebe3 11c0 206d bfbf
00000340: a595 95bf 860c 90bf c0e5 13bf c6ec e1be
00000350: 208a c73f 626f 4dc0 0093 5a3c bca2 e9be
00000360: 26c0 cabe 800f 0fbc 074f 0340 f6cb 36c0
00000370: 4ee8 e5bf c196 0bc0 3ebc 1abf 7535 ffbf
00000380: 9869 0bc0 f569 2f40 408c fcbc 7c87 c4bf
00000390: 99e3 8bbf cbd9 2140 a011 4c3c fe41 8d3f
000003a0: 67de a03f 0171 773f 452a 1dc0 e4a6 82bf
000003b0: 40e2 0340 3177 0d40 7745 8840 2ecb a83f
000003c0: ea2a 2bbf 8600 023f c193 3440 13a2 1e3f
000003d0: 18db 843f 504f da3f 3566 6d40 806c 313d
000003e0: 4a5b 30bf 2076 7dbd c706 f2bd 835c 8b3f
000003f0: 6ac3 463f c045 5fc0 c205 19c0 b1b2 cebf

network.0.bias f4 [64]
-3.0065901 -1.3024752 2.1211553 -0.503713 0.435521 -2.3035336 -0.410086 0.45741403
-1.2979723 -0.9395563 0.6209966 0.54130685 2.6418664 -0.45068842 -0.62676555 -0.9290318
-0.46259436 2.8920796 0.5919905 1.7816706 0.22073361 0.26220572 -0.7540078 -0.39106125
-0.71396196 2.1828077 1.9959273 1.1513916 -1.0923684 0.3564997 -0.099305004 -2.3273888
-0.2695192 -0.81557393 -2.2668006 3.641223 -1.5250949 -0.82313716 0.55385816 -0.04721733
-0.32638013 -1.3253607 0.8072301 -0.8782909 -0.4227472 1.6221718 -0.07044178 0.6514537
-0.357268 1.8496151 1.7189265 -2.6477537 1.7883824 1.778251 0.89376545 1.2399054
1.7898023 3.4051566 -0.6660109 -2.3884332 0.753834 -1.3467318 -1.0907574 -2.257941
00000000: f96b 40c0 82b7 a6bf 02c1 0740 56f3 00bf
00000010: 9cfc de3e 186d 13c0 cbf6 d1be 2c32 ea3e
00000020: f523 a6bf c386 70bf a2f9 1e3f 1693 0a3f
00000030: 5714 2940 a2c0 e6be b573 20bf 07d5 6dbf
00000040: 2bd9 ecbe d517 3940 b08c 173f c80d e43f
00000050: fe07 623e d43f 863e a806 41bf 2e39 c8be
00000060: 36c6 36bf 1fb3 0b40 8c7a ff3f cd60 933f
00000070: bad2 8bbf 2187 b63e 6c60 cbbd f0f3 14c0
00000080: 6cfe 89be 74c9 50bf 4313 11c0 cc09 6940
00000090: 4f36 c3bf 1eb9 52bf a6c9 0d3f f666 41bd
000000a0: 4c1b a7be 6ba5 a9bf a2a6 4e3f acd7 60bf
000000b0: 5272 d8be 53a3 cf3f c843 90bd abc5 263f
000000c0: d5eb b6be 30c0 ec3f c905 dc3f cc74 29c0
000000d0: b7e9 e43f bb9d e33f d0cd 643f 38b5 9e3f
000000e0: 3e18 e53f 16ee 5940 b17f 2abf 17dc 18c0
000000f0: 44fb 403f b561 acbf f09d 8bbf 1b82 10c0

network.2.weight f4 [32, 64]
1.3426082 -0.8895057 -1.0059446 0.117613584 -3.6588864 -1.7880894 -3.2298412 -3.0082269
0.7417215 -2.8933382 -1.2984208 2.2907403 -1.2165649 3.9934404 -3.6906734 1.1345061
0.81040007 -0.3038011 -0.9575716 2.3412466 -3.4599273 0.43363938 -0.7670622 0.73881096
0.21103816 -2.5097556 0.10574391 -1.8876411 1.6931634 -0.5344332 -0.3531817 1.2847646
0.5254911 -1.1409535 -0.69254065 -2.9696355 0.5999299 0.49027875 -0.7600454 -1.0367631
0.29028085 3.297662 -4.630331 -1.2175231 0.1026572 -2.0458496 0.42032254 -0.4861238
-0.89286494 0.58837146 -0.19530073 0.21633355 -2.3077452 0.53734833 -1.6303124 0.6213982
1.393218 -0.73134226 1.7366507 -0.122337185 0.110706136 -1.3227937 0.89045036 -3.1585941
-1.3915988 1.6266135 -3.0829692 1.1999397 0.94732434 -0.3406546 0.08411776 -1.1146119
-0.632329 -1.3075222 3.0711107 -0.54779035 -0.71085167 1.0065885 -1.9432873 -1.3700186
-3.2568827 1.0346168 -1.8518025 -1.8270831 -0.68345094 -2.3989718 -0.48879284 -0.9042033
-0.8645961 0.04657361 0.013629556 0.07996845 -1.1098881 1.1699853 0.16386186 0.21950582
0.68410987 -2.4675636 -3.2876253 -0.20075184 1.5502627 -1.7150266 0.8488949 -1.0482485
0.621286 1.4559321 -1.1463529 0.74901974 1.3048666 -0.66041034 3.1837735 -0.953464
0.32851675 0.6521133 -2.71853 0.14141572 -2.5707283 -0.19938517 -0.7297095 0.6270425
0.89749944 1.2072235 -0.71764326 -1.10841 1.6691023 -0.4152988 1.1985061 -0.4209346
-0.5650543 0.44898444 -3.1313126 -3.9455628 -4.5776114 -1.2852267 -0.9040687 0.3408561
-0.9192474 -0.78083766 -2.366252 1.0260067 2.2323537 -1.0802648 -0.49110797 -0.050251916
-0.46157655 -3.981634 -2.3707616 -1.5359321 1.9979391 -1.4376419 0.315966 1.6809399
-0.96526253 0.3140786 -0.33739868 1.0449728 -1.6808734 -1.8103042 -0.96802276 -2.1751215
1.0267117 2.71414 -0.15309553 2.0801156 0.9463451 -0.6502701 0.46544287 -0.4492737
-0.41885868 2.4379275 2.2001166 2.2721477 -1.182533 -2.8853226 0.92879826 -3.3571825
-0.036572434 0.8849802 -1.8478446 -0.8910498 1.5988147 2.3166997 0.27467215 -0.07664186
1.4900315 2.818283 -0.7617169 0.9987741 -0.4444003 0.93490624 0.2693327 -0.06620583
1.894405 3.480892 -0.72194964 1.9011745 1.6052259 -0.9704317 -1.9463047 -1.0524668
1.819886 -0.61682844 -0.07620177 -1.5159422 -2.918063 3.0128984 -0.3613501 3.3693354
-2.8729763 1.5034971 1.9062834 1.2826458 2.1235943 2.478528 0.8543385 3.2354462
-2.6453996 -0.3440525 -0.3711586 -0.3317689 2.1323137 3.1348937 -1.2469887 0.7078672
1.4615691 4.5115304 -2.221325 2.1779273 0.24993393 2.9122841 0.68220985 0.5519406
0.83743453 -0.6430928 -1.4945543 0.050262004 -0.91136163 2.557556 1.9914819 0.4979888
-0.016667731 0.5388125 -1.1868501 0.016520381 3.5676017 0.30296028 0.14243373 -0.31726864
-0.4312573 -0.3945837 0.39084426 -0.86181784 5.7137256 1.3681316 1.4494946 -0.3946349
00000000: 96da ab3f a5b6 63bf cbc2 80bf 64df f03d
00000010: 322b 6ac0 1de0 e4bf b8b5 4ec0 ca86 40c0
00000020: 76e1 3d3f 742c 39c0 a732 a6bf 7d9b 1240
00000030: 66b8 9bbf 8794 7f40 fe33 6cc0 7f37 913f
00000040: 6176 4f3f d18b 9bbe 6a23 75bf fcd6 1540
00000050: 736f 5dc0 fb05 de3e 305e 44bf b722 3d3f
00000060: 631a 583e d69f 20c0 4390 d83d 399e f1bf
00000070: 94b9 d83f 9dd0 08bf 3bd4 b4be 2b73 a43f
00000080: 9686 063f c40a 92bf 584a 31bf 820e 3ec0
00000090: 0295 193f d105 fb3e 5692 42bf a7b4 84bf
000000a0: b19f 943e e50c 5340 ac2b 94c0 ccd7 9bbf
000000b0: f03d d23d 33ef 02c0 8434 d73e 38e5 f8be
000000c0: cc92 64bf 839f 163f eafc 47be 8b86 5d3e
000000d0: 19b2 13c0 a98f 093f 14ae d0bf f413 1f3f
000000e0: f854 b23f 3f39 3bbf 924a de3f eb8b fabd
000000f0: e6b9 e23d 4e51 a9bf 8ef4 633f 6826 4ac0
00000100: e91f b2bf df34 d03f 5e4f 45c0 a097 993f
00000110: d983 723f 486a aebe ef45 ac3d 9aab 8ebf
00000120: 50e0 21bf e35c a7bf 148d 4440 fd3b 0cbf
00000130: 60fa 35bf e4d7 803f a3bd f8bf c55c afbf
00000140: c470 50c0 536e 843f dd07 edbf dcdd e9bf
00000150: a4f6 2ebf c188 19c0 0e43 fabe de79 67bf
00000160: 2c56 5dbf f8c3 3e3d 804e 5f3c 80c6 a33d
00000170: d010 8ebf 14c2 953f 67cb 273e 22c6 603e
00000180: d321 2f3f 90ec 1dc0 7468 52c0 e491 4dbe
00000190: 026f c63f fe85 dbbf 2d51 593f 022d 86bf
000001a0: 990c 1f3f fc5b ba3f b1bb 92bf c2bf 3f3f
000001b0: de05 a73f a710 29bf f2c2 4b40 3716 74bf
000001c0: 5933 a83e e6f0 263f 65fc 2dc0 48cf 103e
000001d0: d086 24c0 a02b 4cbe 3ece 3abf db85 203f
000001e0: 86c2 653f 4d86 9a3f 78b7 37bf 61e0 8dbf
000001f0: 25a5 d53f 0ba2 d4be a668 993f bd84 d7be
00000200: 66a7 10bf 4ae1 e53e 6d67 48c0 1a84 7cc0
00000210: cb7b 92c0 4f82 a4bf 0c71 67bf b184 ae3e
00000220: cc53 6bbf fae4 47bf ac70 17c0 3054 833f
00000230: e2de 0e40 1e46 8abf 8172 fbbe f4d4 4dbd
00000240: c353 ecbe 17d3 7ec0 8fba 17c0 6c99 c4bf
00000250: 78bc ff3f a604 b8bf 4cc6 a13e 0a29 d73f
00000260: 721b 77bf e9ce a03e 85bf acbe abc1 853f
00000270: dc26 d7bf 0cb8 e7bf 57d0 77bf 3135 0bc0
00000280: 4a6b 833f 78b4 2d40 13c5 1cbe 9d20 0540
00000290: ac43 723f 1a78 26bf 874e ee3e 3407 e6be
000002a0: a574 d6be 0107 1c40 b6ce 0c40 de6a 1140
000002b0: 3e5d 97bf 20a9 38c0 b9c5 6d3f 14dc 56c0
000002c0: facc 15bd 108e 623f 2c86 ecbf d71b 64bf
000002d0: f6a5 cc3f cf44 1440 d4a1 8c3e 68f6 9cbd
000002e0: 5ab9 be3f c05e 3440 e1ff 42bf a9af 7f3f
000002f0: 7088 e3be 0456 6f3f fae5 893e ec96 87bd
00000300: dd7b f23f efc6 5e40 b1d1 38bf b059 f33f
00000310: 0b78 cd3f 366e 78bf 8320 f9bf 3bb7 86bf
00000320: 06f2 e83f 78e8 1dbf ac0f 9cbd 650a c2bf
00000330: 8bc1 3ac0 54d3 4040 e102 b9be 31a3 5740
00000340: d8de 37c0 9872 c03f 1801 f43f bd2d a43f
00000350: f8e8 0740 34a0 1e40 eeb5 5a3f 8d11 4f40
00000360: 3a4e 29c0 a627 b0be 8008 bebe 9ddd a9be
00000370: d477 0840 19a2 4840 539d 9fbf c936 353f
00000380: b214 bb3f 755e 9040 302a 0ec0 2963 0b40
00000390: aeee 7f3e dd62 3a40 4ea5 2e3f fb4b 0d3f
000003a0: 1c62 563f bba1 24bf 8e4d bfbf 88df 4d3d
000003b0: ff4e 69bf ffae 2340 e1e8 fe3f 63f8 fe3e
000003c0: c48a 88bc 9eef 093f b4ea 97bf c055 873c
000003d0: 9653 6440 9c1d 9b3e 26da 113e 0971 a2be
000003e0: c2cd dcbe e006 cabe bd1c c83e 18a0 5cbf
000003f0: d7d6 b640 f01e af3f 0a89 b93f 960d cabe

network.2.bias f4 [32]
-1.649819 -2.0405722 0.5118439 1.2812145 -1.0460014 -0.91077757 -0.0036852062 -0.01652594
-0.78949255 2.1162832 0.42861623 -0.4284525 0.9671052 1.432953 1.9376671 -0.7218228
2.292014 -0.4118194 1.5915414 -1.9391463 0.12521991 0.8920344 -0.6026528 0.51782554
0.3179258 1.7483418 2.586828 -3.4522657 2.2289457 3.0487416 0.8618396 -3.7534695
00000000: 452d d3bf bc98 02c0 3408 033f d6fe a33f
00000010: 60e3 85bf b828 69bf 8083 71bb 6861 87bc
00000020: 2f1c 4abf 2f71 0740 9673 db3e 205e dbbe
00000030: 3594 773f 016b b73f 7a05 f83f 61c9 38bf
00000040: 5bb0 1240 fed9 d2be a1b7 cb3f f235 f8bf
00000050: a639 003e 5e5c 643f 7447 1abf 3790 043f
00000060: 2cc7 a23e aac9 df3f 978e 2540 ecf1 5cc0
00000070: 0ca7 0e40 951e 4340 85a1 5c3f d838 70c0

network.4.weight f4 [2, 32]
1.0452337 -0.4688193 -3.858231 -1.3916796 -0.58250445 3.3550951 -1.1541641 3.5832226
-2.1364105 1.727886 0.093596935 0.5810097 -1.138129 0.6905258 1.0765158 2.4686844
-0.10181984 2.650599 -0.9034622 2.9662144 2.5726418 1.3107574 1.1619215 2.674277
-0.54110116 -1.7775759 -0.009848579 -2.2667313 0.17253877 -2.5487297 -1.5431963 1.1758622
0.32789844 2.3422086 -1.5077294 -2.6803143 1.4254566 0.098193236 1.2828856 2.0061097
0.39845875 -0.8923156 -1.6291329 -1.2865112 -1.7079662 -0.60065395 1.085976 1.1882548
-1.8662785 -0.7901602 -0.7845551 1.8537239 2.9911005 -2.6120472 0.6911959 0.08141412
4.107319 0.9505575 2.3483949 0.5675845 -0.47017488 -1.2420574 1.6527014 -0.74043393
00000000: 38ca 853f 1509 f0be 42ed 76c0 8f22 b2bf
00000010: 031f 15bf e1b9 5640 a6bb 93bf 8553 6540
00000020: f3ba 08c0 5e2b dd3f c0af bf3d 0dbd 143f
00000030: 36ae 91bf 4dc6 303f 45cb 893f edfe 1d40
00000040: ec86 d0bd 6aa3 2940 4c49 67bf 75d6 3d40
00000050: 2aa6 2440 e6c6 a73f d8b9 943f 5b27 2b40
00000060: 9b85 0abf 9b87 e3bf ef5b 21bc 2012 11c0
00000070: 01ae 303e 631e 23c0 7587 c5bf a782 963f
00000080: 4ee2 a73e bfe6 1540 47fd c0bf 458a 2bc0
00000090: 5d75 b63f 8919 c93d 9835 a43f 1a64 0040
000000a0: c902 cc3e cc6e 64bf 6d87 d0bf 66ac a4bf
000000b0: a39e dabf 75c4 19bf 4301 8b3f bc18 983f
000000c0: 37e2 eebf f047 4abf 9ad8 48bf d346 ed3f
000000d0: 316e 3f40 c82b 27c0 37f2 303f 72bc a63d
000000e0: 286f 8340 bc57 733f 1a4c 1640 384d 113f
000000f0: c3ba f0be bdfb 9ebf b88b d33f 148d 3dbf

network.4.bias f4 [2]
1.3369576 -0.15918411
00000000: 6d21 ab3f 2901 23be
