FINAL_04/global_model_dp_sigma_0.75.pth (torch, 21753 bytes, 6 tensors)

network.0.weight f4 [64, 37]
000000 0b 3f 99 3f dc b0 83 bf f6 18 b1 3e 4f 08 06 40
       1.1972364 -1.0288348 0.34589356 2.094257
000010 8c 4a 2b 3e 4c cd b4 3f 5f d4 2c 3f 9d 3c 86 bf
       0.16727656 1.4125152 0.6751155 -1.0487248
000020 ad 67 bf bf f6 25 85 bf ba 71 bd bf 47 aa c5 be
       -1.4953514 -1.040221 -1.4800332 -0.38606474
000030 8a 08 1e bf 49 4a c4 3f 1d a4 1d bf 18 d3 9c bd
       -0.6173178 1.533517 -0.6157854 -0.076574504
000040 07 84 85 3f 00 65 11 3f 2d 75 0f 3f ba ae 2d 3f
       1.0430917 0.5679474 0.5603817 0.67844737
000050 6b 66 be 3f 80 cd 32 bd 70 9f c4 bd 47 83 2b c0
       1.4875005 -0.04365301 -0.09600723 -2.6798875
000060 39 d7 1d 40 37 97 ab 3f 7c c1 7f 3f 7b 63 99 bf
       2.4662611 1.3405522 0.9990461 -1.1983484
000070 5d 56 d1 be af 4f 8e 3f 5c 75 ba 3e 19 21 01 40
       -0.40886202 1.1118068 0.36417663 2.0176451
000080 27 b9 e8 3e 53 cb 18 c0 c0 e9 09 bf db c2 f5 3e
       0.4545376 -2.38741 -0.538723 0.48000225
000090 56 0d 51 3f 14 a4 d0 bf dc 60 35 40 ac e2 c3 bf
       0.81660974 -1.6300073 2.8340368 -1.530355
0000a0 ec 72 3e be b9 df 39 3f 96 04 2e c0 d8 52 f8 3e
       -0.18598527 0.72607 -2.71903 0.48500705
0000b0 12 9b 9c bf 20 6a 1f 3f 67 01 13 40 34 8d 1e c0
       -1.2234824 0.6227131 2.2969606 -2.4773684
0000c0 0b 6b a0 3e 93 01 a0 be f7 4d 0d 3f 66 c4 94 be
       0.31331667 -0.312512 0.5519709 -0.2905609
0000d0 12 ab cc 3f 4a c8 4e bf 4e 7b f4 3f 71 81 50 40
       1.5989707 -0.80774367 1.910013 3.2579005
0000e0 e6 40 ab 3f 1e d7 d8 bf 9d 9d 45 bf 3f 03 3d bf
       1.337918 -1.6940649 -0.77193624 -0.7383308
0000f0 45 c2 11 40 b2 18 e0 be 96 e8 bd 3f 75 cf 2e bf
       2.2774823 -0.4376884 1.4836605 -0.68285304
000100 92 78 2e bf 9b 41 df bf 09 d9 68 3f e5 2a 1e 3f
       -0.68152726 -1.7441896 0.9095617 0.617842
000110 75 62 23 bf ca 23 1d c0 5a e2 7f 3d e5 af 4e 40
       -0.6382211 -2.4553094 0.062471725 3.2294858
000120 1c ce 06 c0 45 5c 61 3f 82 5a da bf 41 0f f4 3f
       -2.10633 0.8803142 -1.7058871 1.9067155
000130 23 f1 62 40 ec 07 a2 3f 8d 94 be 3e ea bd 26 bf
       3.5459678 1.2658668 0.3722271 -0.65133536
000140 ea 45 8d bf 70 74 10 3f bf ce 02 40 25 46 3c 3f
       -1.1036961 0.5642767 2.0438688 0.7354453
000150 3c 1d 08 3f 33 31 9d be d6 bb 0d bf 11 d3 c3 bf
       0.5316961 -0.307016 -0.5536474 -1.5298787
000160 4d ac 65 3f c7 d2 b2 bf ba 5f 0e 40 60 a3 78 be
       0.89716035 -1.3970574 2.2245927 -0.24281073
000170 bf 2c 4a 3f 15 15 82 3f ad 9a d3 be b2 d7 8c 3e
       0.7897453 1.0162684 -0.41328946 0.27508312
000180 34 d8 ec be 3c 34 d4 3e bd 7b 0b bf 5d 73 52 c0
       -0.462587 0.41446102 -0.54485685 -3.2882912
000190 d0 92 46 3d da ab dd 3f ff 5f 34 3f bc 0b 29 bc
       0.048479855 1.731807 0.7045898 -0.010317739
0001a0 94 1f 00 bf 0c 65 f7 be 8c ff a6 be c6 7a a1 3e
       -0.50048184 -0.4831928 -0.32616842 0.3153898
0001b0 6f 04 0f c0 f1 5c af be 15 80 bd be 9e 73 84 3e
       -2.2346456 -0.34250596 -0.3701178 0.2586946
0001c0 b7 7e 1a 40 bf 92 de 3f f5 41 20 3f 19 3f fd 3d
       2.413984 1.7388533 0.6260064 0.123655505
0001d0 85 e4 2a bf 10 a3 7a bf 2e 80 c2 bd 30 0c 1e bf
       -0.66754943 -0.97905064 -0.094971046 -0.61737347
0001e0 3b 19 d5 3e d5 ef cb bf dd e8 04 40 f5 02 bf 3e
       0.41620812 -1.5932566 2.0767128 0.37306944
0001f0 e2 08 c2 be 8a f6 f0 3f cc 22 c5 be 4f cd e9 3e
       -0.37897402 1.8825238 -0.3850311 0.4566445
000200 6e 02 19 be 18 3f b3 3d c8 ed f7 3f 58 13 ba 3d
       -0.14942333 0.087522686 1.936944 0.09085721
000210 62 d6 ee 3e 7e 72 ea bf 16 be a1 3d 6c 1d b8 3f
       0.46647936 -1.831619 0.07897584 1.4383979
000220 d3 48 2d c0 86 93 41 be 2c 37 47 bd e3 63 c5 bf
       -2.7075698 -0.18903932 -0.0486366 -1.5421108
000230 e9 7e 7e 3f 76 1e 94 bf 9b 30 96 bd d6 22 da be
       0.994124 -1.1571796 -0.073334895 -0.42604703
000240 f5 fa 12 c0 97 65 23 c0 8c 72 54 3e c5 38 97 bf
       -2.2965672 -2.5530756 0.20746821 -1.18142
000250 66 17 45 3f 7f 1a 7a bf 92 32 8d bf 3a 13 92 be
       0.7698883 -0.9769668 -1.1031058 -0.28530294
000260 6d 8e 82 bf dc 1c f0 3e 4e 36 e5 bd 51 94 3a bf
       -1.0199715 0.46897018 -0.111919984 -0.7288256
000270 63 56 1d 40 a4 69 88 be 58 97 62 bd c6 a7 20 bf
       2.4583976 -0.26643097 -0.055320114 -0.62756
000280 80 60 d7 be fa 28 8c be 60 96 00 40 9e 68 b8 be
       -0.4206581 -0.27375013 2.0091782 -0.36017317
000290 f2 e9 15 3f e0 23 68 bf 14 a0 35 3f be 61 a0 3c
       0.585601 -0.9067974 0.70947385 0.019577857
0002a0 45 89 cf 3f bb 53 c0 3f 5c c1 65 bd 43 47 b6 3f
       1.6213766 1.5025553 -0.056092605 1.4240497
0002b0 ff e5 72 3f 6d a7 37 3e f3 c9 8a bd 04 76 99 be
       0.94882196 0.17934962 -0.067768 -0.2997285
0002c0 c4 b5 14 c0 7c 64 0c 3f b0 27 11 c0 70 60 1f c0
       -2.323594 0.54840827 -2.2680473 -2.490261
0002d0 f5 f4 b5 3e 31 87 ad bf 40 e0 a4 be 38 bc 01 c0
       0.3553845 -1.3556882 -0.3220234 -2.027113
0002e0 d3 b5 5f be d8 f9 0b bf b7 8f e3 3e f5 ed 90 3f
       -0.21846704 -0.54678106 0.44445583 1.1322619
0002f0 05 59 e1 bf ba 54 aa bf f0 7b 1d 3e 5f 09 a3 bf
       -1.7605292 -1.3307106 0.1537931 -1.2737235
000300 06 eb 8d bf e4 a0 b1 3e 88 9d 22 3f ce 3b 4a 40
       -1.1087348 0.34693062 0.63521624 3.1599002
000310 2e 17 dc 3e ca 43 db bf c9 b8 50 c0 44 61 b7 bf
       0.42986435 -1.7130063 -3.2612784 -1.4326558
000320 80 e4 2c 3f 36 21 41 bf c0 77 91 bb 98 d4 85 3f
       0.67536163 -0.754413 -0.004439324 1.0455503
000330 bb eb 71 3f 36 d9 ba 3e 5d b3 df bf f0 07 96 bf
       0.9450032 0.36493844 -1.7476612 -1.1721172
000340 30 0e 66 bf 14 51 56 bf 9a 2a d8 be af fb 99 be
       -0.898654 -0.83717465 -0.42220002 -0.30074832
000350 8f 70 8e 3f 8c f8 1c c0 00 f1 e9 ba 0c 29 a6 be
       1.11281 -2.45267 -0.0017848313 -0.3245319
000360 0b 46 8d be 00 01 21 bc 2e 98 c4 3f 93 ca 0b c0
       -0.275925 -0.009826899 1.5358942 -2.1842391
000370 8c 9b b2 bf e9 ff cf bf 27 4f f6 be 2a 7d c1 bf
       -1.3953719 -1.6249973 -0.48107263 -1.5116322
000380 33 de d6 bf d4 a0 04 40 00 ed 4f ba cd 9b 92 bf
       -1.678656 2.0723162 -0.0007931739 -1.1453797
000390 d9 71 53 bf 83 57 f0 3f e0 00 a1 bb 2a b0 60 3f
       -0.8259559 1.8776706 -0.0049134344 0.87768805
0003a0 ef b0 79 3f ad 6e 45 3f cc 0e ea bf 30 e0 43 bf
       0.97535604 0.77122 -1.8285766 -0.7651396
0003b0 af 9e c4 3f 05 22 cf 3f c8 d1 49 40 25 bb 71 3f
       1.5360926 1.6182257 3.153429 0.94426185
0003c0 31 6b fc be 91 66 b5 3e c6 40 06 40 7a 64 dd 3e
       -0.4930053 0.35429814 2.0977035 0.4324072
0003d0 a2 51 4b 3f 66 ce a2 3f 57 c4 31 40 28 b9 87 3d
       0.79421437 1.2719238 2.7776086 0.066271126
0003e0 f7 f0 03 bf 80 41 a8 ba dc 97 a5 bd 97 80 4e 3f
       -0.5153956 -0.0012836903 -0.080856055 0.8066496
0003f0 30 16 17 3f 4e b0 27 c0 ed 42 e4 bf 8f 67 a1 bf
       0.5901823 -2.6201358 -1.7832924 -1.2609729

network.0.bias f4 [64]
000000 8e 31 11 c0 7a 2d 79 bf 6d a1 d2 3f 3c 22 c8 be
       -2.2686496 -0.97335017 1.6455513 -0.3908862
000010 aa 76 a3 3e b4 8a e1 bf c3 22 99 be 79 7f c2 3e
       0.3192647 -1.7620454 -0.29909334 0.3798788
000020 1b c8 7f bf 9e 01 30 bf 70 00 ec 3e 69 65 cb 3e
       -0.9991471 -0.6875247 0.46094084 0.39725807
000030 eb 7e fc 3f 7a a8 aa be 4a 04 05 bf b9 58 3b bf
       1.9726232 -0.33331662 -0.5195967 -0.73182255
000040 92 98 ae be 2d fc 0b 40 e7 b1 01 3f 11 ef a3 3f
       -0.34100777 2.1872666 0.5066208 1.2807332
000050 da bf 59 3e 53 d8 4d 3e 92 23 18 bf ff bc 86 be
       0.21264592 0.20102052 -0.59429276 -0.26316068
000060 83 9c 11 bf bb 60 cf 3f d2 5e bb 3f fc 63 54 3f
       -0.5687944 1.6201395 1.4638312 0.82965064
000070 c3 8a 4e bf ec bd 8c 3e 92 3b 6b bd aa f0 e0 bf
       -0.80680484 0.2748865 -0.057429858 -1.7573445
000080 5b 7d 72 be 5d d6 23 bf 8e 86 d9 bf f4 ba 31 40
       -0.23680632 -0.6399897 -1.6994188 2.7770357
000090 4a 63 91 bf cb 95 28 bf d0 d5 de 3e 01 b1 89 bd
       -1.1358426 -0.65853566 0.435225 -0.06723214
0000a0 78 9e 96 be 90 03 78 bf 6c 94 12 3f 09 74 26 bf
       -0.29417777 -0.96880436 0.57257724 -0.65020806
0000b0 22 74 92 be cc b3 97 3f fe a1 af bd 3e c9 01 3f
       -0.28604227 1.1851745 -0.085758194 0.50697696
0000c0 f1 9a 9d be e6 0c b2 3f 2c cf a2 3f cb 7e fa bf
       -0.30782273 1.3910186 1.2719474 -1.9569944
0000d0 66 6f a9 3f f7 9d a6 3f b0 fd 2c 3f d5 e2 70 3f
       1.3237121 1.3016957 0.67574596 0.9409612
0000e0 34 7a ae 3f 90 b8 25 40 d8 8a 04 bf 92 f7 e5 bf
       1.3631043 2.5893898 -0.5177436 -1.7966177
0000f0 af e0 13 3f 20 bd 81 bf 19 2e 54 bf 61 88 dd bf
       0.57764715 -1.0135841 -0.8288284 -1.7307245

network.2.weight f4 [32, 64]
000000 7c 90 7a 3f 32 a1 21 bf e4 0f 47 bf c2 13 d7 3d
       0.97876716 -0.6313659 -0.7775862 0.105018154
000010 20 4d 30 c0 52 0a a9 bf 22 9e 19 c0 b1 e5 11 c0
       -2.7547073 -1.3206275 -2.4002767 -2.2796443
000020 e7 23 0a 3f 43 43 0c c0 72 f7 79 bf c1 e2 d7 3f
       0.5396103 -2.1916053 -0.97643197 1.6866075
000030 8a b9 67 bf 70 60 3d 40 75 20 31 c0 8a e4 5f 3f
       -0.90517485 2.959011 -2.767606 0.874581
000040 3c a1 1a 3f a1 cd 75 be 6f b8 3a bf 85 2c e2 3f
       0.60402274 -0.24004222 -0.72937673 1.7669836
000050 36 54 25 c0 cc e4 a5 3e ce bd 18 bf df 19 08 3f
       -2.5832648 0.3240112 -0.5966462 0.53164476
000060 1d ef 3c 3e 78 02 ee bf 64 35 ba 3d fc a3 b8 bf
       0.1845059 -1.8594503 0.09092215 -1.4425044
000070 ae 98 a5 3f 96 91 d1 be 35 3e 6e be a0 cf 77 3f
       1.2937219 -0.40931386 -0.23265918 0.96801186
000080 ed b5 c8 3e c0 df 58 bf 68 12 f5 be bb 45 11 c0
       0.39201298 -0.84716415 -0.47865605 -2.269881
000090 d2 c1 eb 3e fb 86 ab 3e ca d6 11 bf 1e 49 50 bf
       0.4604631 0.3350142 -0.5696837 -0.8136157
0000a0 75 bb 4f 3e 72 c4 1f 40 d6 e6 5e c0 86 43 72 bf
       0.20286353 2.496365 -3.482839 -0.9463428
0000b0 e8 8e cc 3d 58 0d c4 bf 8c 3a a2 3e d2 b4 c9 be
       0.09988195 -1.5316572 0.31685293 -0.39395767
0000c0 30 79 32 bf 91 82 da 3e b4 81 06 be 46 0a 18 3e
       -0.6971617 0.4267774 -0.13135415 0.14847669
0000d0 e6 12 de bf 32 cc bf 3e 70 25 9e bf 5e ea f8 3e
       -1.7349517 0.37460476 -1.2355175 0.48616308
0000e0 74 c2 88 3f 62 ef 09 bf 2f 67 a5 3f 3c ff 89 bd
       1.0684342 -0.53880894 1.2922114 -0.06738135
0000f0 90 c6 9c 3d c6 de 83 bf 20 8b 25 3f 06 f4 16 c0
       0.0765506 -1.030236 0.6466541 -2.358644
000100 3b ba 84 bf c6 7e 9b 3f 38 29 13 c0 d8 7c 66 3f
       -1.0369333 1.2148063 -2.2993908 0.90034246
000110 23 ea 38 3f 26 2f 92 be 9d 1c 36 3d 6e 2e 58 bf
       0.72232264 -0.28551596 0.04446088 -0.84445846
000120 b7 39 02 bf 94 d5 80 bf 83 d3 10 40 76 c1 d5 be
       -0.50869316 -1.0065179 2.2629097 -0.4174916
000130 97 ba 0a bf 65 df 3e 3f 56 c8 bd bf af ce 81 bf
       -0.54190964 0.74559623 -1.4826763 -1.01412
000140 b0 d6 1c c0 27 81 4c 3f e6 f5 af bf ad 1b b1 bf
       -2.4506035 0.7988457 -1.3746917 -1.3836571
000150 9f 53 07 bf cf 89 e6 bf 4f 48 aa be cb 4d 33 bf
       -0.5286197 -1.8010806 -0.33258292 -0.7004058
000160 d7 e2 23 bf 20 60 1c 3c c0 a3 a6 bb 0c 98 90 3d
       -0.64018005 0.009544402 -0.0050854385 0.07060251
000170 c2 3c 59 bf 53 e9 64 3f 7e 8a ee 3d e8 9a 19 3e
       -0.84858334 0.89418525 0.11647509 0.15000498
000180 e4 3e 07 3f e9 75 eb bf 36 f9 1d c0 8b 82 2b be
       0.5283034 -1.8395358 -2.4683356 -0.16749017
000190 0e f5 94 3f b5 45 a8 bf 4c 31 23 3f fa b3 4b bf
       1.1637285 -1.3146273 0.63747096 -0.795715
0001a0 59 19 f1 3e 1f 2c 8e 3f 72 49 5d bf 10 fd 08 3f
       0.4708965 1.1107215 -0.86440194 0.5351114
0001b0 32 a7 80 3f 54 78 f4 be fc 89 16 40 a4 81 32 bf
       1.0051024 -0.47748053 2.352172 -0.69729066
0001c0 c0 1d 79 3e 0b f0 ed 3e db 12 04 c0 01 f8 b8 3d
       0.24327755 0.464722 -2.0636508 0.09031678
0001d0 1a 53 fc bf c8 44 0d be e6 97 0a bf 2c 88 e5 3e
       -1.971286 -0.13795769 -0.5413803 0.44830453
0001e0 47 0a 30 3f 9e d3 5f 3f 25 7a 0b bf 05 e1 59 bf
       0.6876568 0.8743228 -0.5448325 -0.8510898
0001f0 e6 ba 9f 3f 2b cc 98 be 3e d1 69 3f d8 1b a5 be
       1.2478912 -0.29843268 0.91334903 -0.32247806
000200 d2 d5 e0 be a4 32 ba 3e 6e 1d 15 c0 d6 58 3c c0
       -0.43913132 0.3636676 -2.3299212 -2.942922
000210 9d 11 5d c0 fd d4 70 bf 6a 20 2e bf 3e 02 8d 3e
       -3.4542 -0.94074994 -0.6801821 0.27540773
000220 2a bb 30 bf be 4b 16 bf a1 a5 e3 bf 40 0e 47 3f
       -0.6903559 -0.58709323 -1.7784921 0.7775612
000230 02 4d d7 3f 5e ae 49 bf 04 c0 b4 be be 65 23 bd
       1.6820376 -0.7878169 -0.35302746 -0.03989195
000240 65 2a ae be 73 98 40 c0 00 dd e7 bf 98 84 91 bf
       -0.3401672 -3.0093048 -1.8114319 -1.1368589
000250 ab ec c1 3f 31 ed 8b bf 9e 69 84 3e 2e 04 a2 3f
       1.515035 -1.093176 0.2586183 1.2657526
000260 da c4 37 bf 6e 77 6f 3e ef ae 81 be fc 1c 4d 3f
       -0.71784747 0.23385403 -0.25328776 0.8012235
000270 9e 9f 9b bf 76 6f ad bf e4 5c 3c bf aa 24 d2 bf
       -1.2158086 -1.354964 -0.7357924 -1.6417439
000280 2a 60 4c 3f 36 f0 02 40 e8 7b b3 bd f2 2f c6 3f
       0.79834235 2.0459113 -0.087638676 1.5483382
000290 91 85 3a 3f 7c 22 f9 be e7 33 c6 3e b7 6a a9 be
       0.72860056 -0.48659122 0.38711473 -0.3308923
0002a0 aa 3f b3 be e8 0c e8 3f 71 58 d4 3f 9f 4a dd 3f
       -0.3500951 1.8128939 1.658949 1.7288398
0002b0 17 7a 69 bf 4d 31 09 c0 96 e5 31 3f 0e ee 20 c0
       -0.9120192 -2.143634 0.69490945 -2.5145297
0002c0 a4 8d fa bc a5 af 2c 3f a9 03 ae bf 7d f6 27 bf
       -0.030585118 0.6745551 -1.3594867 -0.65610486
0002d0 6d 34 9e 3f 91 ba da 3f 81 70 55 3e 84 ee 1b bd
       1.2359749 1.7088186 0.20843698 -0.038069263
0002e0 8d eb 93 3f c4 42 09 40 5b 0e 10 bf b5 27 36 3f
       1.1556259 2.1447 -0.56271905 0.7115434
0002f0 cb 64 a9 be 64 7a 2f 3f a2 c9 35 3e 60 71 d5 bc
       -0.3308471 0.6854613 0.17752698 -0.026055038
000300 44 75 b2 3f 38 6c 29 40 41 db 12 bf f5 6b b7 3f
       1.3942037 2.6472301 -0.57365805 1.4329821
000310 b5 7d 9a 3f 83 58 3f bf d4 da bb bf b7 aa 52 bf
       1.2069613 -0.74744433 -1.4676156 -0.8229174
000320 dd 4b ad 3f 4d 94 e1 be 89 7b c8 bd cf 01 94 bf
       1.3538777 -0.44058457 -0.097891875 -1.1563052
000330 49 fd 0a c0 f5 a2 0e 40 84 2c 8e be 02 ce 22 40
       -2.1717093 2.228696 -0.27768338 2.5438237
000340 2d f9 0a c0 76 66 8f 3f 7b 60 b6 3f 84 b5 75 3f
       -2.1714585 1.1203144 1.4248194 0.95980096
000350 a9 5b c8 3f 6f 91 eb 3f 0d de 1b 3f fb 7f 19 40
       1.5652972 1.8403758 0.608857 2.3984363
000360 c8 b0 fb bf b0 3c 91 be f1 d0 a0 be b8 ea 85 be
       -1.9663324 -0.28366613 -0.3140941 -0.2615564
000370 1f c8 cc 3f b3 3f 14 40 e2 22 7b bf 78 2f f1 3e
       1.5998572 2.316388 -0.981001 0.47106528
000380 48 92 8b 3f d6 e9 55 40 2a 55 d4 bf ce e6 cd 3f
       1.0904016 3.3423972 -1.658849 1.6086061
000390 19 48 1d 3e ba aa 0b 40 c6 a4 fc 3e 94 18 b9 3e
       0.15359534 2.1822953 0.49344462 0.36151564
0003a0 19 4f 1d 3f 3b fc 06 bf 49 23 93 bf e2 5f 8a 3d
       0.6144882 -0.52728623 -1.1495143 0.067565694
0003b0 e5 a1 2c bf 7c 1e f2 3f b2 0e bf 3f b4 aa c7 3e
       -0.6743453 1.8915553 1.492636 0.38997424
0003c0 92 e4 91 bd 0b ff c1 3e 8a ad 69 bf 10 8f 8f bc
       -0.071236745 0.37889895 -0.91280425 -0.017524272
0003d0 1d f8 2a 40 11 25 3a 3e e3 b0 e9 3d 92 73 87 be
       2.6713936 0.18178202 0.114106916 -0.2645536
0003e0 12 b9 a4 be 50 6e a8 be 90 e5 88 3e c4 8d 2a bf
       -0.32172447 -0.32896662 0.26737642 -0.6662257
0003f0 26 cd 87 40 67 73 86 3f f4 87 87 3f 8b 34 9d be
       4.2437925 1.0503968 1.0588365 -0.3070415

network.2.bias f4 [32]
000000 1c ff 9f bf 61 bb c9 bf 10 0b db 3e 01 1f 7a 3f
       -1.2499728 -1.5760309 0.42781878 0.9770356
000010 57 53 4c bf 46 8d 2f bf 48 28 ef 3c 88 b0 43 bd
       -0.79814667 -0.6857494 0.029194012 -0.047775775
000020 2e 5c 21 bf af b5 ce 3f 06 92 a4 3e 64 d7 9c be
       -0.6303128 1.6149195 0.32142657 -0.3063308
000030 bb 27 34 3f d2 25 89 3f 15 a9 be 3f d2 af 11 bf
       0.70373124 1.0714667 1.489535 -0.56908906
000040 32 40 dc 3f e2 19 b6 be 96 66 97 3f bd 66 b7 bf
       1.7207091 -0.35566622 1.1828182 -1.4328228
000050 ed 84 0d 3d 44 ce 26 3f b2 17 e2 be 4a e6 c1 3e
       0.034550596 0.65158486 -0.44158703 0.3787101
000060 e4 d9 62 3e 7e 7d a2 3f d2 60 f6 3f 91 b0 25 c0
       0.22153431 1.2694547 1.9248297 -2.5889018
000070 d4 fe d1 3f cf 03 13 40 cc 40 1e 3f 11 59 35 c0
       1.6405892 2.2971075 0.6181762 -2.8335612

network.4.weight f4 [2, 32]
000000 e4 d7 49 3f 6f 12 a2 be 66 60 3b c0 ae b1 8b bf
       0.7884505 -0.3165469 -2.9277587 -1.0913599
000010 22 ab ee be 2f 71 1e 40 36 13 65 bf 6a 2e 2e 40
       -0.4661494 2.4756582 -0.8948244 2.721583
000020 3d 32 d2 bf a5 e2 a0 3f b6 ea f5 3c af 28 ce 3e
       -1.6421582 1.2569166 0.030019145 0.40265414
000030 dd 10 5e bf 5b e2 f7 3e 9f dc 52 3f a7 8a ed 3f
       -0.8674448 0.48414883 0.8236789 1.8557938
000040 19 a0 8b bd 43 8a ff 3f aa 3e 27 bf e7 b8 11 40
       -0.068176456 1.9964069 -0.6532999 2.2769105
000050 1c 84 f7 3f 4e 0d 81 3f aa b8 65 3f f4 71 02 40
       1.9337192 1.0082185 0.897349 2.0382051
000060 ff 56 bf be f1 e4 aa bf 2e 81 5d bc 76 bc d4 bf
       -0.3737106 -1.3351117 -0.013519568 -1.6620014
000070 7b 4c 1d 3e 03 e9 ed bf cf 16 93 bf 6d 0a 60 3f
       0.15361206 -1.8586735 -1.1491336 0.8751591
000080 d2 94 89 3e 87 b6 df 3f 7d 95 8a bf 0b a0 01 c0
       0.26871353 1.7477578 -1.082687 -2.0253932
000090 78 a4 86 3f ce 91 ab 3d d3 50 7e 3f 37 aa bb 3f
       1.0518942 0.083774194 0.9934208 1.466132
0000a0 ee 7d 95 3e 12 c5 1f bf 2a b0 9a bf 71 38 6c bf
       0.2919764 -0.6241008 -1.2085011 -0.9227362
0000b0 86 44 a4 bf c6 5c f1 be f7 b0 44 3f 00 83 60 3f
       -1.2833412 -0.47141093 0.76832527 0.8769989
0000c0 a8 6c b9 bf 4a 63 0f bf 44 45 17 bf 6a 1d ad 3f
       -1.4486284 -0.5601088 -0.59090066 1.3524601
0000d0 3b be 11 40 56 76 f7 bf 3b bf 0a 3f f8 52 ff 3c
       2.2772357 -1.9332988 0.54198045 0.031167492
0000e0 58 a7 46 40 7b 59 27 3f 13 8d e2 3f f4 f6 c3 3e
       3.1039639 0.6537091 1.7699302 0.38274348
0000f0 70 1d af be e1 ce 75 bf e5 97 a0 3f c8 01 18 bf
       -0.34202147 -0.960188 1.2546355 -0.5937772

network.4.bias f4 [2]
000000 16 83 7b 3f 0e 1d f5 bd
       0.98246896 -0.11968432
