FINAL_04/global_model_dp_sigma_0.25.pth (torch, 21753 bytes, 6 tensors)

network.0.weight f4 [64, 37]
0.4752622 -0.25474837 0.09745724 0.7896545 0.038513586 0.4946694 0.21729344 -0.23255374
-0.3620935 -0.3866113 -0.37189728 -0.08026387 -0.121672355 0.528438 -0.15497346 -0.0371754
0.4372952 0.21041025 0.14068589 0.25922346 0.4504677 -0.035984583 -0.030374056 -0.7786274
0.7812069 0.44030815 0.33734444 -0.4250638 -0.08292641 0.3023854 0.24471425 0.61572725
0.2687682 -0.78956395 -0.2358177 0.21052077 0.2800773 -0.45064336 0.95754707 -0.55400115
-0.031900246 0.19720803 -0.8766552 0.25603306 -0.35183495 0.1603755 0.83280605 -0.8245241
0.17358027 -0.18853568 0.063103974 -0.13726123 0.43132582 -0.18784136 0.6460335 1.111885
0.4602432 -0.58649826 -0.17911696 -0.32790473 0.7683993 -0.21960832 0.52916884 -0.28347316
-0.19460651 -0.6072018 0.4019735 0.1385573 -0.27570423 -0.85178155 0.126835 1.123817
-0.58668447 0.21141832 -0.64423275 0.5620302 1.0901397 0.49827516 0.14864872 -0.09379518
-0.37074518 0.1575663 0.7793237 0.23296078 0.24489105 -0.09330727 -0.14209929 -0.6154735
0.28842664 -0.45496717 0.761059 -0.13264652 0.30379158 0.387008 -0.24418081 0.060327463
0.0020331554 0.12938021 -0.18689717 -1.1557051 -0.053174242 0.64340127 0.25815138 -0.015158901
-0.12206628 -0.23010871 -0.14893587 0.08459139 -0.788634 -0.13444586 0.033251718 0.10647621
0.846011 0.4636087 0.1362052 -0.008205073 -0.21454659 -0.438409 -0.10288722 -0.28654552
0.13128498 -0.5675677 0.6833252 0.043571737 -0.21074699 0.5640971 -0.1731608 0.05199776
0.036035452 -0.0016205609 0.7327806 0.054844953 0.07009751 -0.55416983 -0.016582878 0.42034188
-1.012041 -0.17252144 -0.004695315 -0.559101 0.35751635 -0.481498 0.037839 -0.22570993
-0.78397673 -0.8260854 0.12721497 -0.30726677 0.39118057 -0.39289668 -0.31643218 -0.10819251
-0.3202389 0.11565604 0.08728508 -0.29557857 0.9025804 -0.014306951 0.043131262 -0.21839616
0.00037095696 -0.03680992 0.72381335 -0.17781906 0.2805802 -0.2819307 0.22413148 0.13931793
0.6025587 0.454196 -0.046622954 0.50273144 0.40901172 0.054750517 -0.06373105 -0.110610425
-0.8312708 0.28214824 -0.6525519 -0.87272084 0.19431822 -0.3601902 -0.05382237 -0.67347765
0.029850282 -0.10855024 0.24178663 0.40128142 -0.6009808 -0.40324762 0.07673909 -0.40919232
-0.25303328 0.23142478 0.25322124 1.1191655 0.2894993 -0.5392107 -1.0322269 -0.41766268
0.16557993 -0.2571549 0.12964776 0.4305801 0.34605563 0.095503576 -0.598208 -0.4385071
-0.29474518 -0.18851762 -0.03869643 0.062076956 0.2978699 -0.8601818 0.0793723 0.06214046
0.013318524 0.07269588 0.5783356 -0.7594592 -0.51454914 -0.4230699 -0.21716708 -0.53070796
-0.67578757 0.75810397 0.07654674 -0.34826303 -0.37078312 0.51142037 -0.11253605 0.34949914
0.3668335 0.32064888 -0.5586881 -0.23383537 0.5038223 0.44936925 0.9502561 0.20420848
-0.12645125 0.05634239 0.6706639 0.07656065 0.23054498 0.32763296 0.8389454 0.043147177
-0.22691736 0.04982435 -0.07782538 0.16888359 0.16522971 -0.9523419 -0.6445793 -0.5309402
00000000: 9155 f33e 616e 82be a997 c73d cc26 4a3f
00000010: 6cc0 1d3d 4f45 fd3e 2c82 5e3e 9122 6ebe
00000020: 5264 b9be ebf1 c5be 5269 bebe 6261 a4bd
00000030: 5b2f f9bd b647 073f 5db1 1ebe 3b45 18bd
00000040: 28e5 df3e c975 573e f60f 103e f0b8 843e
00000050: b4a3 e63e 9264 13bd 03d3 f8bc 2054 47bf
00000060: 2dfd 473f 1270 e13e 69b8 ac3e f6a1 d9be
00000070: 52d5 a9bd 42d2 9a3e 5f96 7a3e 4da0 1d3f
00000080: fc9b 893e dd20 4abf 327a 71be c292 573e
00000090: 4b66 8f3e baba e6be ce21 753f 05d3 0dbf
000000a0: d5a9 02bd e7f0 493e 7a6c 60bf c416 833e
000000b0: b623 b4be 7a39 243e c732 553f 0314 53bf
000000c0: 07bf 313e 7f0f 41be a83c 813d 358e 0cbe
000000d0: bdd6 dc3e 7c59 40be 7462 253f 3f52 8e3f
000000e0: ffa4 eb3e c024 16bf 706a 37be 21e3 a7be
000000f0: d1b5 443f 01e1 60be 9c77 073f 6523 91be
00000100: ee46 47be 9471 1bbf 78cf cd3e f7e1 0d3e
00000110: 1b29 8dbe 5b0e 5abf 09e1 013e 3cd9 8f3f
00000120: f430 16bf 0b7e 583e 70ec 24bf 36e1 0f3f
00000130: b389 8b3f ec1d ff3e 5f37 183e b017 c0bd
00000140: 50d2 bdbe 0f59 213e c281 473f 458d 6e3e
00000150: b8c4 7a3e e217 bfbd 7a82 11be ac8f 1dbf
00000160: a8ac 933e 75f1 e8be c3d4 423f 7dd4 07be
00000170: 928a 9b3e ea25 c63e 890a 7abe ee19 773d
00000180: b03e 053b 3f7c 043e f961 3fbe 25ee 93bf
00000190: 3ccd 59bd f2b5 243f 6b2c 843e 0a5d 78bc
000001a0: e3fd f9bd 9ea1 6bbe a582 18be 403e ad3d
000001b0: ebe3 49bf 2dac 09be f432 083d 3310 da3d
000001c0: 2d94 583f 1f5e ed3e 6079 0b3e 926e 06bc
000001d0: 1ab2 5bbe 2577 e0be 89b6 d2bd 18b6 92be
000001e0: 926f 063e 1e4c 11bf 66ee 2e3f 4778 323d
000001f0: 0fce 57be ab68 103f 1151 31be 9afb 543d
00000200: e999 133d 0069 d4ba 8297 3b3f 1aa5 603d
00000210: 498f 8f3d 13de 0dbf d1d8 87bc 0d37 d73e
00000220: 8f8a 81bf 76a9 30be 28db 99bb 3e21 0fbf
00000230: 620c b73e e886 f6be 11fd 1a3d 8120 67be
00000240: b3b2 48bf 557a 53bf a444 023e 1252 9dbe
00000250: d248 c83e c129 c9be 6603 a2be 0994 ddbd
00000260: 5af6 a3be 13dd ec3d 85c2 b23d 1356 97be
00000270: 820f 673f b467 6abc 68aa 303d 3ea3 5fbe
00000280: 007d c239 00c6 16bd d54b 393f 3316 36be
00000290: 35a8 8f3e 3959 90be b982 653e 5ca9 0e3e
000002a0: 4941 1a3f 618c e83e b6f7 3ebd 02b3 003f
000002b0: fc69 d13e 1442 603d 6d85 82bd b887 e2bd
000002c0: 2ace 54bf bc75 903e a40d 27bf a26a 5fbf
000002d0: 5bfb 463e da6a b8be d874 5cbd 0869 2cbf
000002e0: 9488 f43c 974f debd ea96 773e c274 cd3e
000002f0: e1d9 19bf 7976 cebe 6229 9d3d a881 d1be
00000300: 948d 81be 9efa 6c3e 37a6 813e d140 8f3f
00000310: 4139 943e b609 0abf 0320 84bf e2d7 d5be
00000320: c98d 293e cfa9 83be 62c2 043e ff74 dc3e
00000330: 342e b13e 6197 c33d 2924 19bf 0184 e0be
00000340: d7e8 96be c30a 41be 2680 1ebd 6844 7e3d
00000350: 6782 983e e034 5cbf f28d a23d ff86 7e3d
00000360: f035 5a3c 94e1 943d cd0d 143f eb6b 42bf
00000370: 7eb9 03bf 9e9c d8be 0c61 5ebe 7adc 07bf
00000380: 6a00 2dbf 1a13 423f 8ac4 9c3d 884f b2be
00000390: 49d7 bdbe 72ec 023f 4d79 e6bd 8df1 b23e
000003a0: 9ad1 bb3e 172c a43e 2f06 0fbf 8a72 6fbe
000003b0: 80fa 003f ba13 e63e fc43 733f 071c 513e
000003c0: 707c 01be 47c7 663d a1b0 2b3f d4cb 9c3d
000003d0: fc13 6c3e 82bf a73e 20c5 563f 18bb 303d
000003e0: 065d 68be 9e14 4c3d ea62 9fbd d2ef 2c3e
000003f0: fa31 293e aecc 73bf 2603 25bf b2eb 07bf

network.0.bias f4 [64]
-0.7730053 -0.23007369 0.68214256 -0.15054742 0.04435136 -0.6023952 -0.1499828 0.17958066
-0.46039712 -0.20115848 0.1161532 0.10732642 0.6273021 -0.044858493 -0.28202984 -0.31763005
-0.11876436 0.8247722 0.29021943 0.35731176 0.11609232 0.029061437 -0.24417642 -0.049161453
-0.25506312 0.44802308 0.33929035 0.22194058 -0.18926619 0.111489385 0.0017123446 -0.6670645
-0.20211506 -0.28810287 -0.6633559 1.0590254 -0.37232226 -0.26388234 0.2194532 -0.08655465
-0.20598842 -0.27674463 0.12917008 -0.19840127 0.014324449 0.3709473 -0.11865361 0.20074832
-0.1681925 0.52192175 0.36820504 -0.6144465 0.33835146 0.39381313 0.20184672 0.28952575
0.566717 0.9755073 -0.1760886 -0.64368063 0.14070116 -0.34289134 -0.2682574 -0.7127292
00000000: ade3 45bf 7098 6bbe e5a0 2e3f 1a29 1abe
00000010: c6a9 353d 9236 1abf 1795 19be fee3 373e
00000020: 2cb9 ebbe 7dfc 4dbe bbe1 ed3d f4cd db3d
00000030: df96 203f 8abd 37bd 3766 90be 68a0 a2be
00000040: bb3a f3bd 4524 533f a497 943e 91f1 b63e
00000050: cfc1 ed3d 4012 ee3c 6209 7abe 855d 49bd
00000060: a297 82be 4863 e53e 77b7 ad3e 6444 633e
00000070: ffce 41be 8c54 e43d c070 e03a bdc4 2abf
00000080: 40f7 4ebe 3882 93be b1d1 29bf 258e 873f
00000090: 06a1 bebe 961b 87be 57b8 603e 9043 b1bd
000000a0: a1ee 52be 79b1 8dbe 2945 043e b429 4bbe
000000b0: 18b1 6a3c ceec bd3e aa00 f3bd f890 4d3e
000000c0: a83a 2cbe aa9c 053f 5f85 bc3e 5e4c 1dbf
000000d0: 673c ad3e e0a1 c93e e8b0 4e3e b83c 943e
000000e0: 5e14 113f d9ba 793f 9250 34be 41c8 24bf
000000f0: f713 103e 748f afbe 0959 89be 6c75 36bf

network.2.weight f4 [32, 64]
0.22729507 -0.16450521 -0.3699436 0.07369641 -0.9117154 -0.44626075 -0.7471787 -0.8779447
0.11689937 -0.7263138 -0.36098686 0.43612778 -0.28847528 0.82921445 -0.896713 0.33152732
0.14973941 -0.07557035 -0.28119704 0.63023657 -0.83840317 0.053894192 -0.2907567 0.118327856
0.07154184 -0.5823548 0.041639097 -0.5688499 0.48057356 -0.15692903 -0.09680168 0.31442133
0.13604748 -0.35125667 -0.10878147 -0.835101 0.16102464 -0.032332037 -0.2614512 -0.38127998
-0.010497253 0.83969396 -1.2203889 -0.40502608 0.08017005 -0.5117141 0.08891755 -0.22178322
-0.36093628 0.091714084 0.0056417566 -0.039635424 -0.6491305 -0.009795662 -0.46091864 0.16714051
0.37927794 -0.20450823 0.38683236 0.022865094 -0.047906954 -0.4039896 0.20104423 -0.8149475
-0.33079192 0.41939422 -0.70035565 0.31443697 0.29566038 -0.14057502 -0.024082206 -0.2980582
-0.24208993 -0.38659424 0.6769521 -0.13201465 -0.17755982 0.25001296 -0.5527601 -0.25958785
-0.82661945 0.31614697 -0.411185 -0.49617714 -0.18084565 -0.5365564 -0.03700956 -0.24271074
-0.14747278 -0.07247934 -0.048786946 0.11082651 -0.29659334 0.38314414 0.049985874 0.03301827
0.24992931 -0.5372183 -0.8203417 -0.09229824 0.39868695 -0.46379042 0.2759446 -0.264976
0.16823252 0.44164252 -0.25104135 0.103476495 0.4175336 -0.113488756 0.73693126 -0.15589444
0.12885745 0.13249682 -0.7440483 0.029053701 -0.74031866 0.00042205676 -0.13228196 0.12159503
0.31198236 0.27049232 -0.18148449 -0.33389166 0.43265432 -0.050119273 0.35010704 -0.12612274
-0.19901955 0.17668869 -0.7513057 -0.98187137 -1.1997484 -0.3128483 -0.22076103 0.16861577
-0.22567317 -0.2135854 -0.6243618 0.2785923 0.5559436 -0.28470027 -0.07990894 -0.099212214
-0.16502053 -1.0698364 -0.6536208 -0.39601398 0.48508817 -0.40867788 0.15910931 0.36830187
-0.3133861 0.041419424 -0.08997426 0.2291793 -0.3533591 -0.5108539 -0.3049044 -0.6124963
0.31127262 0.6998296 -0.011813648 0.5285228 0.269433 -0.16481906 0.14075835 -0.1550766
-0.16531181 0.5453284 0.5661823 0.6228945 -0.33427054 -0.6496543 0.2166164 -0.8721448
-0.08453072 0.18423095 -0.38194007 -0.24481104 0.42709285 0.4752102 0.014352478 -0.036575854
0.42924204 0.7178812 -0.1844906 0.16840003 -0.14001143 0.13428466 0.0072079226 -0.000655435
0.35822466 0.92494637 -0.21488641 0.48262954 0.51875937 -0.27219567 -0.4684169 -0.37178424
0.47785524 -0.09563519 -0.055934306 -0.45729586 -0.6586965 0.62448615 -0.066284165 0.9616933
-0.76592 0.3743041 0.46143568 0.36583167 0.5029538 0.6469171 0.088227674 0.7941453
-0.59325737 -0.08457978 -0.16247596 -0.04710868 0.604736 0.7707103 -0.45710424 0.05622694
0.40180033 1.0080333 -0.54728436 0.4745373 0.00029963627 0.61267745 0.117987156 0.10283809
0.13571449 -0.26166165 -0.44489795 0.08261278 -0.2509751 0.56905866 0.46203378 0.2054589
-0.13644019 0.12396898 -0.35593098 -0.022194348 0.9115341 -0.09224345 0.15390141 -0.11739242
-0.02732028 -0.12955083 0.13128677 -0.2668118 1.31578 0.43770123 0.29121035 -0.10439482
00000000: 0ac0 683e 0e74 28be 3f69 bdbe 25ee 963d
00000010: 2e66 69bf 4a7c e4be 1a47 3fbf fcc0 60bf
00000020: f068 ef3d b4ef 39bf 45d3 b8be 244c df3e
00000030: 08b3 93be 6647 543f fc8e 65bf f3bd a93e
00000040: 4a55 193e a1c4 9abd 0ff9 8fbe 2f57 213f
00000050: 97a1 56bf 28c0 5c3d 10de 94be e055 f23d
00000060: 8784 923d 3415 15bf c28d 2a3d 26a0 11bf
00000070: bd0d f63e 01b2 20be f63f c6bd d5fb a03e
00000080: 0850 0b3e ead7 b3be d2c8 debd 2ec9 55bf
00000090: a5e3 243e 996e 04bd efdc 85be 2137 c3be
000000a0: acfc 2bbc 2ff6 563f b435 9cbf 945f cfbe
000000b0: 3230 a43d b2ff 02bf 681a b63d 241b 63be
000000c0: a4cc b8be 98d4 bb3d 7cde b83b c158 22bd
000000d0: 6b2d 26bf fc7d 20bc 87fd ebbe e226 2b3e
000000e0: b830 c23e 9b6a 51be e40e c63e 944f bb3c
000000f0: 153a 44bd bad7 cebe 8ade 4d3e 66a0 50bf
00000100: 8f5d a9be d7ba d63e 824a 33bf e2fd a03e
00000110: cc60 973e e6f2 0fbe 0c48 c5bc 169b 98be
00000120: 6ce6 77be aeef c5be bc4c 2d3f d92e 07be
00000130: 3ed2 35be b301 803e b081 0dbf b3e8 84be
00000140: 559d 53bf 04de a13e d786 d2be ee0a febe
00000150: 9a2f 39be c35b 09bf 5697 17bd 2a89 78be
00000160: 1b03 17be 0c70 94bd d2d4 47bd 02f9 e23d
00000170: 15db 97be 782b c43e fdbd 4c3d 2a3e 073d
00000180: 78ed 7f3e 2387 09bf ea01 52bf dc06 bdbd
00000190: b220 cc3e f075 edbe 9c48 8d3e efaa 87be
000001a0: 2545 2c3e f81e e23e 7e88 80be 7ceb d33d
000001b0: f7c6 d53e cb6c e8bd 87a7 3c3f cba2 1fbe
000001c0: 35f3 033e 3fad 073e f379 3ebf 0702 ee3c
000001d0: 8685 3dbf 8047 dd39 ec74 07be d106 f93d
000001e0: 27bc 9f3e f87d 8a3e 12d7 39be d9f3 aabe
000001f0: de84 dd3e de49 4dbd 3b41 b33e 5226 01be
00000200: c8cb 4bbe e1ed 343e 9255 40bf ec5b 7bbf
00000210: 5b91 99bf a72d a0be 2e0f 62be 9da9 2c3e
00000220: de16 67be 22b6 5abe 2dd6 1fbf a6a3 8e3e
00000230: 5252 0e3f 3cc4 91be 4ca7 a3bd c62f cbbd
00000240: 24fb 28be 66f0 88bf b153 27bf 58c2 cabe
00000250: 7a5d f83e 3a3e d1be 8ded 223e 1092 bc3e
00000260: 2574 a0be 6aa7 293d 6d44 b8bd faad 6a3e
00000270: 7ceb b4be 52c7 02bf 6e1c 9cbe 8fcc 1cbf
00000280: 205f 9f3e 0828 333f 088e 41bc 454d 073f
00000290: 1ff3 893e 54c6 28be f522 103e 66cc 1ebe
000002a0: 8047 29be a49a 0b3f 53f1 103f 0476 1f3f
000002b0: 8225 abbe bf4f 26bf b1d0 5d3e e244 5fbf
000002c0: 711e adbd 0aa7 3c3e a68d c3be bfaf 7abe
000002d0: eaab da3e c04e f33e a826 6b3c 90d0 15bd
000002e0: 9dc5 db3e 10c7 373f 1beb 3cbe 0f71 2c3e
000002f0: 285f 0fbe eb81 093e 7030 ec3b 80d1 2bba
00000300: 3969 b73e 49c9 6c3f 2f0b 5cbe 381b f73e
00000310: 6acd 043f 3b5d 8bbe 57d4 efbe 815a bebe
00000320: 71a9 f43e 62dc c3bd 5f1b 65bd af22 eabe
00000330: 55a0 28bf 53de 1f3f febf 87bd 8831 763f
00000340: 5513 44bf c9a4 bf3e 4c41 ec3e 4a4e bb3e
00000350: 95c1 003f 5c9c 253f b6b0 b43d 1b4d 4b3f
00000360: b7df 17bf 2a38 adbd 1960 26be 08f5 40bd
00000370: facf 1a3f 454d 453f 9109 eabe 384e 663d
00000380: c6b8 cd3e 3c07 813f d41a 0cbf 8ef6 f23e
00000390: 8018 9d39 6ed8 1c3f 40a3 f13d c79c d23d
000003a0: bdf8 0a3e 84f8 85be aac9 e3be e430 a93d
000003b0: cf7f 80be d4ad 113f b18f ec3e d163 523e
000003c0: fab6 0bbe 73e3 fd3d 963c b6be ecd0 b5bc
000003d0: 4c5a 693f 22ea bcbd 5598 1d3e 706b f0bd
000003e0: c8ce dfbc f9a8 04be 0a70 063e 8e9b 88be
000003f0: 7b6b a83f 601a e03e 8619 953e f4cc d5bd

network.2.bias f4 [32]
-0.44945276 -0.5962191 0.1780816 0.4432279 -0.31446242 -0.26263103 0.09371 -0.11384742
-0.30664185 0.54949605 0.14518107 -0.09033418 0.20158969 0.35302785 0.5531457 -0.2339052
0.54464424 -0.2192406 0.41696686 -0.4022465 -0.029620681 0.16796473 -0.13260175 0.093935244
0.038264066 0.35792127 0.5935072 -0.86726516 0.4159238 0.771361 0.19604827 -0.99302137
00000000: ac1e e6be d1a1 18bf 065b 363e c4ee e23e
00000010: 3801 a1be 9377 86be 07eb bf3d d628 e9bd
00000020: 2900 9dbe c6ab 0c3f 59aa 143e 2001 b9bd
00000030: 876d 4e3e 11c0 b43e f59a 0d3f d884 6fbe
00000040: ce6d 0b3f 9c80 60be ae7c d53e 41f3 cdbe
00000050: 12a7 f2bc f2fe 2b3e c1c8 07be 1f61 c03d
00000060: c8ba 1c3d 7541 b73e 16f0 173f 1705 5ebf
00000070: f7f3 d43e ea77 453f e1c0 483e a636 7ebf

network.4.weight f4 [2, 32]
0.27970988 -0.030032149 -0.9930687 -0.51660204 -0.25671333 0.71379864 -0.36644796 1.0060282
-0.6179645 0.36542886 -0.109690726 0.057418153 -0.29556155 0.07132303 0.34137586 0.6384323
-0.06569952 0.7355812 -0.14626932 0.90027 0.6308026 0.3939531 0.37717733 0.7391396
-0.032542184 -0.48009947 -0.0649872 -0.4567486 0.12556574 -0.47399822 -0.39326462 0.24653868
0.14548329 0.57648146 -0.30733326 -0.6898316 0.32798022 0.057877336 0.40461513 0.37876785
0.043220744 -0.13884099 -0.35467032 -0.20684913 -0.46478 -0.21334074 0.10778652 0.2459406
-0.5493214 -0.14834633 -0.21140598 0.3476105 0.87438595 -0.5666773 0.2345416 -0.0455971
1.0883105 0.0895637 0.6551859 0.015934542 -0.09671609 -0.40350974 0.4884808 -0.2733979
00000000: 2236 8f3e fb05 f6bc c039 7ebf 0840 04bf
00000010: ee6f 83be 82bb 363f 119f bbbe 88c5 803f
00000020: ec32 1ebf 7e19 bb3e 88a5 e0bd 4c2f 6b3d
00000030: d853 97be cf11 923d d1c8 ae3e 4d70 233f
00000040: 788d 86bd 0d4f 3c3f a0c7 15be 1878 663f
00000050: 477c 213f 39b4 c93e 631d c13e 4138 3d3f
00000060: f44a 05bd 99cf f5be 0218 85bd f4da e9be
00000070: 4e94 003e e5af f2be fb59 c9be a374 7c3e
00000080: 92f9 143e 4a94 133f c95a 9dbe ce98 30bf
00000090: 06ed a73e c910 6d3d b729 cf3e dced c13e
000000a0: 3c08 313d 552c 0ebe 5997 b5be 42d0 53be
000000b0: a5f7 edbe ff75 5abe 2ebf dc3d dad7 7b3e
000000c0: 54a0 0cbf 1ae8 17be cf7a 58be 01fa b13e
000000d0: c2d7 5f3f c311 11bf ac2b 703e 06c4 3abd
000000e0: c24d 8b3f 2c6d b73d 43ba 273f 2889 823c
000000f0: 1613 c6bd d498 cebe 281a fa3e cffa 8bbe

network.4.bias f4 [2]
0.2661959 -0.033399895
00000000: d44a 883e 54ce 08bd
