FINAL_04/global_model_dp_sigma_0.5.pth (torch, 21741 bytes, 6 tensors)

network.0.weight f4 [64, 37]
0.85036093 -0.6356412 0.22928938 1.4539067 0.111237556 0.962418 0.46586406 -0.62047076
-0.902511 -0.68248516 -0.93030787 -0.22601812 -0.3594176 1.0417091 -0.3732816 -0.046784718
0.74943346 0.39847818 0.35963094 0.477648 0.97793186 -0.033109054 -0.043388743 -1.7126136
1.6372498 0.9115448 0.6599075 -0.78548247 -0.21920319 0.7341469 0.32190302 1.3225874
0.3889445 -1.5747529 -0.37547997 0.3571908 0.5592348 -1.0707754 1.871946 -1.05372
-0.13929929 0.44709945 -1.8144552 0.3444637 -0.81040114 0.36138996 1.5348234 -1.6564735
0.22738756 -0.274035 0.28096405 -0.24472803 0.99167585 -0.5176395 1.25827 2.1632004
0.88005805 -1.1580433 -0.4932926 -0.55906594 1.4989972 -0.34711543 0.98142236 -0.48412898
-0.46566877 -1.2030711 0.62913233 0.35007688 -0.4773006 -1.6758994 0.06256611 2.1449444
-1.374931 0.51621807 -1.1631048 1.2527863 2.3278823 0.8931444 0.27007183 -0.35561496
-0.71798146 0.3829378 1.4256586 0.515486 0.39221126 -0.18266265 -0.32373053 -1.053708
0.61246043 -0.90303767 1.5065187 -0.16594027 0.57131654 0.7231999 -0.30528975 0.18823907
-0.21026774 0.2858088 -0.34730646 -2.2039092 0.015600562 1.2040986 0.49535513 0.007859139
-0.28550544 -0.3347016 -0.21517998 0.20917174 -1.5017973 -0.23253572 -0.16738388 0.18577652
1.6363988 1.0988972 0.38353282 0.060937498 -0.43487984 -0.7423087 -0.1276293 -0.4821043
0.24564898 -1.0871922 1.3625424 0.20901534 -0.2948366 1.2292657 -0.27748436 0.25110662
-0.053497266 0.04548937 1.3369331 0.07402752 0.2761503 -1.2251903 -0.0027069561 0.8959164
-1.8900814 -0.19088504 -0.053444125 -1.077443 0.64695555 -0.8449874 -0.0376664 -0.3415794
-1.5363747 -1.6854814 0.17168762 -0.7399676 0.55892974 -0.6944207 -0.72449166 -0.22012968
-0.69182444 0.27342278 -0.010669777 -0.5112781 1.6731268 -0.14423455 0.0029839613 -0.41406673
-0.23291129 -0.17707847 1.3415406 -0.29108277 0.4104585 -0.6151089 0.4470599 0.06105913
1.0916796 0.9663443 -0.05135355 0.96811783 0.6910237 0.1173971 -0.06284668 -0.21094674
-1.5862426 0.41816682 -1.4507415 -1.68081 0.2919384 -0.8797099 -0.20784232 -1.3699667
-0.11373961 -0.32232442 0.34163827 0.78580886 -1.1688038 -0.8584395 0.12452321 -0.82439625
-0.661281 0.30192506 0.4594755 2.1436183 0.39750135 -1.1085668 -2.1350062 -0.9121866
0.43652034 -0.4920858 0.0785557 0.7560466 0.6640735 0.24716458 -1.1788831 -0.78849185
-0.5816484 -0.49146402 -0.21192381 -0.110581264 0.7219721 -1.6458497 0.07669476 -0.1010233
-0.07980335 0.08917031 1.0686839 -1.4627333 -0.9482289 -1.013891 -0.3496772 -1.0242379
-1.1780479 1.4163865 0.039093047 -0.7455392 -0.5635649 1.2244526 -0.023211427 0.64373285
0.6756464 0.5593647 -1.1941024 -0.49891075 1.0201318 1.033433 2.0519369 0.57326126
-0.30993843 0.20425609 1.3849564 0.25207222 0.54602134 0.8296336 1.8374672 0.09011127
-0.3609388 0.057717934 -0.046314772 0.5203819 0.38803935 -1.7744684 -1.2021616 -0.895204
00000000: 41b1 593f 62b9 22bf d6ca 6a3e 9d19 ba3f
00000010: 84d0 e33d 0761 763f bc85 ee3e 2cd7 1ebf
00000020: f60a 67bf 59b7 2ebf a828 6ebf 4b71 67be
00000030: 9505 b8be b956 853f c41e bfbe 55a1 3fbd
00000040: dfda 3f3f 5505 cc3e 8c21 b83e 478e f43e
00000050: be59 7a3f 5c9d 07bd 65b8 31bd ec36 dbbf
00000060: 6791 d13f 005b 693f b3ef 283f 6115 49bf
00000070: cd76 60be 0df1 3b3f 79d0 a43e 8b4a a93f
00000080: bc23 c73e 8191 c9bf e93e c0be b6e1 b63e
00000090: 032a 0f3f 2b0f 89bf ed9b ef3f 4ce0 86bf
000000a0: 79a4 0ebe 38ea e43e 1140 e8bf 8c5d b03e
000000b0: 7376 4fbf 1b08 b93e 1875 c43f 5307 d4bf
000000c0: 49d8 683e 514e 8cbe 85da 8f3e fc99 7abe
000000d0: 78de 7d3f 0684 04bf fe0e a13f e071 0a40
000000e0: 7c4b 613f c33a 94bf d990 fcbe f21e 0fbf
000000f0: 24df bf3f 1db9 b1be 7f3e 7b3f c1df f7be
00000100: 236c eebe 3cfe 99bf d10e 213f 473d b33e
00000110: bf60 f4be df83 d6bf a922 803d c546 0940
00000120: bdfd afbf de26 043f 9ee0 94bf 4d5b a03f
00000130: 06fc 1440 1da5 643f db46 8a3e 2a13 b6be
00000140: a2cd 37bf 6c10 c43e fb7b b63f e4f6 033f
00000150: eacf c83e eb0b 3bbe 02c0 a5be e7df 86bf
00000160: 35ca 1c3f 7a2d 67bf 9bd5 c03f 3fec 29be
00000170: cd41 123f a123 393f f04e 9cbe bec1 403e
00000180: 6d50 57be 8855 923e 27d2 b1be d90c 0dc0
00000190: 8099 7f3c e71f 9a3f 309f fd3e 9ec3 003c
000001a0: c52d 92be 025e abbe 2458 5cbe 1e31 563e
000001b0: e53a c0bf d81d 6ebe ae66 2bbe 333c 3e3e
000001c0: 8475 d13f aaa8 8c3f 6a5e c43e 9999 793d
000001d0: 92a8 debe f107 3ebf 41b1 02be 60d6 f6be
000001e0: 688b 7b3e 1d29 8bbf ca67 ae3f 1e08 563e
000001f0: d3f4 96be 9458 9d3f 6e12 8ebe 0c91 803e
00000200: f31f 5bbd 1053 3a3d a020 ab3f be9b 973d
00000210: 9263 8d3e 09d3 9cbf 3067 31bb c75a 653f
00000220: 30ee f1bf 5e77 43be 3ae8 5abd a7e9 89bf
00000230: e19e 253f 1851 58bf 1548 1abd 7fe3 aebe
00000240: eda7 c4bf dbbd d7bf e1ce 2f3e 846e 3dbf
00000250: 0516 0f3f 8ec5 31bf 4978 39bf ad69 61be
00000260: 681b 31bf 12fe 8b3e 4ad0 2ebc 1fe3 02bf
00000270: 0529 d63f 39b2 13be 908e 433b 8e00 d4be
00000280: 4c80 6ebe 0f54 35be 9ab7 ab3f cd08 95be
00000290: 9e27 d23e c777 1dbf 09e5 e43e 2319 7a3d
000002a0: 28bc 8b3f 5762 773f 1a58 52bd 92d6 773f
000002b0: eee6 303f e46d f03d c3b5 80bd 6c02 58be
000002c0: ff09 cbbf f619 d63e e6b1 b9bf c824 d7bf
000002d0: f378 953e ab34 61bf 9ed4 54be 125b afbf
000002e0: 50f0 e8bd b507 a5be 36eb ae3e c52a 493f
000002f0: 5d9b 95bf b1c2 5bbf 0606 ff3d a20b 53bf
00000300: b649 29bf ec95 9a3e 5f40 eb3e 0b31 0940
00000310: 4c85 cb3e 84e5 8dbf f1a3 08c0 1085 69bf
00000320: 987f df3e acf2 fbbe d0e1 a03d 458c 413f
00000330: b900 2a3f b618 7d3e a4e5 96bf 9ada 49bf
00000340: e9e6 14bf 2ca1 fbbe 8e02 59be 6e78 e2bd
00000350: 2ad3 383f 34ab d2bf 2412 9d3d 4ee5 cebd
00000360: f06f a3bd ec9e b63d a2ca 883f d83a bbbf
00000370: 21bf 72bf 2ec7 81bf e408 b3be 3a1a 83bf
00000380: 46ca 96bf 274c b53f 0820 203d a8db 3ebf
00000390: ca45 10bf ddba 9c3f e425 bebc adcb 243f
000003a0: 2af7 2c3f 8632 0f3f 59d8 98bf 3b71 ffbe
000003b0: ae93 823f 8847 843f ef52 0340 40c1 123f
000003c0: 40b0 9ebe 8228 513e 4046 b13f 9c0f 813e
000003d0: 0ec8 0b3f de62 543f 2032 eb3f 428c b83d
000003e0: f8cc b8be a469 6c3d 8fb4 3dbd c037 053f
000003f0: 18ad c63e c821 e3bf 6ee0 99bf 172c 65bf

network.0.bias f4 [64]
-1.4946464 -0.63041663 1.178068 -0.29934722 0.17374149 -1.1689045 -0.19016229 0.29233178
-0.7362539 -0.45288724 0.30344588 0.24064428 1.2971234 -0.2149615 -0.40869376 -0.48135367
-0.22094929 1.5114557 0.4241666 0.81495917 0.18554698 0.12030369 -0.44718122 -0.14280352
-0.43305457 1.0048909 0.9159144 0.5028791 -0.47835326 0.18249701 0.009104487 -1.2406117
-0.23443805 -0.43367842 -1.1595138 1.9051907 -0.73140496 -0.4649042 0.33473977 -0.062105965
-0.25601095 -0.6241935 0.35125464 -0.41082126 -0.1469242 0.75903535 -0.087090366 0.36689994
-0.2615163 0.95605916 0.8207733 -1.3002033 0.85486144 0.8530544 0.4414218 0.58456916
0.97006094 1.774675 -0.34732974 -1.2204282 0.362215 -0.68284726 -0.55098355 -1.1982011
00000000: 9350 bfbf fc62 21bf efca 963f 0a44 99be
00000010: 4ae9 313e aa9e 95bf e7b9 42be 83ac 953e
00000020: 237b 3cbf d6e0 e7be 425d 9b3e 746b 763e
00000030: 2408 a63f de1e 5cbe 4f40 d1be fd73 f6be
00000040: 8840 62be 6177 c13f 5d2c d93e 2aa1 503f
00000050: 0700 3e3e c861 f63d f0f4 e4be 163b 12be
00000060: 54b9 ddbe 44a0 803f 5e79 6a3f afbc 003f
00000070: b8ea f4be 7fe0 3a3e fc2a 153c 5dcc 9ebf
00000080: 8710 70be 190b debe f36a 94bf 4add f33f
00000090: 5b3d 3bbf ec07 eebe 0363 ab3e d362 7ebd
000000a0: de13 83be 25cb 1fbf a6d7 b33e 2a57 d2be
000000b0: 4c73 16be 2450 423f 6f5c b2bd 4fda bb3e
000000c0: 77e5 85be 4bc0 743f 331e 523f 106d a6bf
000000d0: 33d8 5a3f c661 5a3f 0a02 e23e 53a6 153f
000000e0: ea55 783f 8d28 e33f 34d5 b1be fe36 9cbf
000000f0: 3f74 b93e 14cf 2ebf 420d 0dbf a75e 99bf

network.2.weight f4 [32, 64]
0.6296873 -0.39335755 -0.55844885 0.0846612 -1.8461268 -0.85157275 -1.5766742 -1.5865445
0.317833 -1.4502239 -0.6707217 1.0532042 -0.59411967 1.9152852 -1.8394268 0.6268055
0.42395046 -0.17751886 -0.52323127 1.2199606 -1.6963559 0.190717 -0.45491737 0.3427117
0.16338222 -1.2020317 0.07285954 -0.9799265 0.90819216 -0.2663081 -0.15328108 0.64180666
0.28004414 -0.59248435 -0.29821724 -1.567255 0.32599136 0.14868055 -0.38963133 -0.5743317
0.09613605 1.6911076 -2.3471384 -0.67398965 0.08060485 -1.0288342 0.18469948 -0.29295683
-0.5060369 0.28324947 -0.06475861 0.085673355 -1.1524857 0.17087 -0.817423 0.35621458
0.7561569 -0.34107742 0.8448659 -0.029351097 0.024031125 -0.71310663 0.40422565 -1.5677788
-0.67685163 0.8174159 -1.5023835 0.6059972 0.50586456 -0.21886021 0.008458748 -0.5716702
-0.37520048 -0.7026707 1.4694886 -0.28488854 -0.36408806 0.48476744 -1.0189146 -0.6404867
-1.629376 0.55849844 -0.8909038 -0.9341712 -0.36180753 -1.1839963 -0.17960975 -0.4752559
-0.39759538 -0.027932301 -0.021046005 0.08006628 -0.5811446 0.63076377 0.07833703 0.09150714
0.38826066 -1.1871524 -1.6517565 -0.13842717 0.77844775 -0.90038157 0.45163485 -0.5297713
0.32421955 0.7733133 -0.5705761 0.32369232 0.7052281 -0.2876596 1.5369277 -0.43280277
0.17208138 0.29326808 -1.4084786 0.058531012 -1.3524253 -0.06574624 -0.33255762 0.28371304
0.4990129 0.5599531 -0.37043446 -0.5898986 0.8293277 -0.18961841 0.6231322 -0.21581419
-0.32797253 0.28397724 -1.5312726 -1.957361 -2.3355713 -0.62334526 -0.4526711 0.2192259
-0.46301997 -0.3955114 -1.2066735 0.5362214 1.129309 -0.50345874 -0.21520135 -0.054779507
-0.24049841 -2.0435367 -1.250028 -0.751933 1.0101722 -0.7451631 0.21226743 0.83549094
-0.50269896 0.12669463 -0.17009033 0.53131026 -0.7739414 -0.91893065 -0.516629 -1.1228604
0.56999886 1.3764992 -0.04568539 1.0276467 0.50987256 -0.31876135 0.27552307 -0.22485346
-0.27668008 1.1824609 1.121844 1.174147 -0.6338477 -1.3886554 0.46303168 -1.6771331
-0.046957526 0.44150668 -0.87095726 -0.44197342 0.8451394 1.0871916 0.124053 -0.0264633
0.798559 1.4390004 -0.36824146 0.43452504 -0.23213804 0.42076388 0.0783325 -0.006590858
0.8705328 1.7646778 -0.41908896 0.9571229 0.79480046 -0.54463947 -1.0229008 -0.59091455
0.8987209 -0.2612941 -0.12651457 -0.805958 -1.4462081 1.4081562 -0.16394617 1.7323496
-1.4799582 0.727756 0.9587165 0.64740884 1.0063723 1.1931033 0.36452264 1.598936
-1.2975984 -0.21250218 -0.28837404 -0.16624421 1.087292 1.5311625 -0.743617 0.22253849
0.7474758 2.1751642 -1.1087275 1.0530202 0.063550234 1.4235198 0.27362183 0.20333888
0.36087632 -0.40967003 -0.80662936 0.062347867 -0.45501795 1.2145799 0.9922055 0.2920426
-0.14604229 0.23484041 -0.6334468 -0.06328517 1.7761668 0.048143238 0.11382708 -0.20871946
-0.19894946 -0.25470176 0.16137065 -0.4817451 2.7552953 0.750268 0.7038126 -0.21096987
00000000: 3033 213f 2966 c9be 81f6 0ebf da62 ad3d
00000010: e24d ecbf ac00 5abf 76d0 c9bf e413 cbbf
00000020: 02bb a23e f0a0 b9bf 6bb4 2bbf 65cf 863f
00000030: 3a18 18bf 1128 f53f 5672 ebbf 5376 203f
00000040: 0910 d93e 81c7 35be 7cf2 05bf ab27 9c3f
00000050: 3122 d9bf 514b 433e eeea e8be e877 af3e
00000060: ab4d 273e 2ddc 99bf 6237 953d 77dc 7abf
00000070: 487f 683f 8959 88be b7f5 1cbe 714d 243f
00000080: f261 8f3e 0ead 17bf eeaf 98be d09b c8bf
00000090: 57e8 a63e b73f 183e c27d c7be 6707 13bf
000000a0: fae2 c43d 3776 d83f 8437 16c0 968a 2cbf
000000b0: 2814 a53d d7b0 83bf dc21 3d3e 70fe 95be
000000c0: a28b 01bf 1306 913e 2aa0 84bd 8375 af3d
000000d0: a784 93bf 8cf8 2e3e a242 51bf c261 b63e
000000e0: 8093 413f b3a1 aebe 2249 583f b671 f0bc
000000f0: ecdc c43c 288e 36bf aaf6 ce3e faac c8bf
00000100: 2646 2dbf 2b42 513f 1a4e c0bf a222 1b3f
00000110: 5780 013f e41c 60be 9096 0a3c fa58 12bf
00000120: 471a c0be 3ae2 33bf 3418 bc3f e9dc 91be
00000130: c069 babe 7033 f83e cb6b 82bf f0f6 23bf
00000140: 658f d0bf c1f9 0e3f 4512 64bf d825 6fbf
00000150: d63e b9be 318d 97bf 9eeb 37be be54 f3be
00000160: 9f91 cbbe 48d2 e4bc ac68 acbc caf9 a33d
00000170: e4c5 14bf bc79 213f 2a6f a03d 1868 bb3d
00000180: 1aca c63e 9cf4 97bf c26c d3bf dabf 0dbe
00000190: 5a48 473f 687f 66bf af3c e73e 189f 07bf
000001a0: 1b00 a63e dcf7 453f 4611 12bf 00bb a53e
000001b0: d489 343f 1e48 93be 0cba c43f 5398 ddbe
000001c0: 1a36 303e 3c27 963e 0749 b4bf 37be 6f3d
000001d0: 461c adbf f7a5 86bd fe44 aabe d642 913e
000001e0: 9e7e ff3e 1659 0f3f 96a9 bdbe 9803 17bf
000001f0: d24e 543f 542b 42be 9885 1f3f 65fe 5cbe
00000200: 04ec a7be 7765 913e be00 c4bf ce8a fabf
00000210: 007a 15c0 8e93 1fbf 82c4 e7be c17c 603e
00000220: f410 edbe 7880 cabe 4774 9abf ce45 093f
00000230: 338d 903f ace2 00bf be5d 5cbe 7a60 60bd
00000240: 3745 76be 4ec9 02c0 eb00 a0bf ae7e 40bf
00000250: 534d 813f 02c3 3ebf a25c 593e bce2 553f
00000260: e1b0 00bf 3dbc 013e 292c 2ebe f303 083f
00000270: 0621 46bf 0a3f 6bbf cc41 04bf e4b9 8fbf
00000280: 72eb 113f 2031 b03f 9a20 3bbd ed89 833f
00000290: 0287 023f b034 a3be 5c11 8d3e fc3f 66be
000002a0: 03a9 8dbe e15a 973f 9698 8f3f 734a 963f
000002b0: d843 22bf 76bf b1bf 7d12 ed3e 4cac d6bf
000002c0: 8956 40bd 2a0d e23e 0ef7 5ebf 574a e2be
000002d0: 0e5b 583f 1829 8b3f 800f fe3d 90c9 d8bc
000002e0: 5d6e 4c3f 2a31 b83f 258a bcbe 117a de3e
000002f0: 98b5 6dbe 5d6e d73e ca6c a03d 20f8 d7bb
00000300: 3ddb 5e3f f6e0 e13f d492 d6be 0206 753f
00000310: 0b78 4b3f 7e6d 0bbf 6aee 82bf 2d46 17bf
00000320: 9312 663f 57c8 85be 098d 01be 4353 4ebf
00000330: 591d b9bf 763e b43f 81e1 27be a2bd dd3f
00000340: 456f bdbf 384e 3a3f 726e 753f 96bc 253f
00000350: cfd0 803f 9cb7 983f b6a2 ba3e efa9 cc3f
00000360: b417 a6bf 2c9a 59be c3a5 93be ec3b 2abe
00000370: 622c 8b3f 22fd c33f af5d 3ebf 21e1 633e
00000380: 935a 3f3f e435 0b40 c8ea 8dbf 5ec9 863f
00000390: a026 823d e635 b63f 2918 8c3e 1138 503e
000003a0: c8c4 b83e 45c0 d1be 437f 4ebf 7a60 7f3d
000003b0: 1df8 e8be 5b77 9b3f 2e01 7e3f 9c86 953e
000003c0: 1c8c 15be 017a 703e 9229 22bf a89b 81bd
000003d0: 6f59 e33f d831 453d 2c1e e93d 8eba 55be
000003e0: 68b9 4bbe 4568 82be 593e 253e 4ba7 f6be
000003f0: c256 3040 9011 403f 102d 343f 7c08 58be

network.2.bias f4 [32]
-0.8295619 -1.0897875 0.31456798 0.6844849 -0.56265676 -0.48137283 0.0647016 -0.08712682
-0.46400693 1.0876118 0.21197663 -0.20463224 0.44965908 0.7086353 1.0073721 -0.38704902
1.1470121 -0.3002368 0.81172705 -0.8490169 0.003722582 0.4178372 -0.29275483 0.2438212
0.13595489 0.8242575 1.2511253 -1.7097698 1.0364922 1.5422986 0.39209348 -1.9185404
00000000: 2b5e 54bf 287e 8bbf 0e0f a13e 673a 2f3f
00000010: 460a 10bf 8076 f6be 4682 843d 8c6f b2bd
00000020: 5192 edbe dd36 8b3f 6710 593e 1d8b 51be
00000030: b739 e63e 1f69 353f 92f1 803f 4a2b c6be
00000040: 4bd1 923f a3b8 99be 58cd 4f3f 2c59 59bf
00000050: 90f6 733b c2ee d53e f6e3 95be 44ac 793e
00000060: c237 0b3e 8a02 533f e024 a03f bdd9 dabf
00000070: c7ab 843f 0a6a c53f 7ac0 c83e bb92 f5bf

network.4.weight f4 [2, 32]
0.5187497 -0.15424302 -1.9775765 -0.80941063 -0.36528748 1.5887282 -0.63139445 1.8709321
-1.1251807 0.81118613 -0.034696706 0.2312539 -0.5836115 0.27783814 0.565104 1.2446516
-0.039280616 1.364984 -0.40338412 1.6517179 1.2750049 0.7069632 0.63710535 1.3979563
-0.20328967 -0.8958067 -0.030899841 -1.079362 0.11873516 -1.1708782 -0.7649628 0.55520326
0.22241914 1.1427488 -0.67732495 -1.3521042 0.6938055 0.07633811 0.6998626 0.9144425
0.16307454 -0.38117725 -0.78675914 -0.56591815 -0.8719196 -0.34262317 0.45496252 0.56399393
-1.0263067 -0.3528274 -0.39687246 0.78683335 1.5833569 -1.2558329 0.38850555 -0.01569616
2.0958753 0.35909387 1.2052733 0.21934329 -0.19797817 -0.67668515 0.86544806 -0.42825776
00000000: c8cc 043f e2f1 1dbe 3a21 fdbf 8935 4fbf
00000010: f606 bbbe 725b cb3f 11a3 21bf b47a ef3f
00000020: ec05 90bf e5a9 4f3f 221e 0ebd d3cd 6c3e
00000030: 9067 15bf cd40 8e3e a8aa 103f be50 9f3f
00000040: b6e4 20bd ccb7 ae3f 5d88 cebe 7e6b d33f
00000050: 5c33 a33f 8afb 343f 5619 233f 3bf0 b23f
00000060: 2b2b 50be 9753 65bf aa21 fdbc 8928 8abf
00000070: 6b2b f33d 56df 95bf 9ad4 43bf cd21 0e3f
00000080: d8c1 633e 9845 923f 2b65 2dbf c011 adbf
00000090: 3d9d 313f 2857 9c3d 322a 333f e718 6a3f
000000a0: 03fd 263e aa29 c3be 0c69 49bf 03e0 10bf
000000b0: 1f36 5fbf 4e6c afbe d9f0 e83e e861 103f
000000c0: 055e 83bf cba5 b4be de32 cbbe e96d 493f
000000d0: 70ab ca3f 22bf a0bf 33ea c63e 3c95 80bc
000000e0: d222 0640 27db b73e 6546 9a3f 879b 603e
000000f0: caba 4abe 3d3b 2dbf 018e 5d3f 9a44 dbbe

network.4.bias f4 [2]
0.62605715 -0.0782616
00000000: 4845 203f 9e47 a0bd
